platform_target: "Ara2"
is_converted: true
context_size: 1024
layer {
  name: "position_ids_embedded"
  type: "Input"
  top: "position_ids_embedded"
  base_type: "Input"
  estimator_group: "Input"
  input_param {
    shape {
      dim: 1
      dim: 1
      dim: 256
      dim: 256
    }
    layout: "NCHW"
  }
}
layer {
  name: "input_ids_embedded"
  type: "Input"
  top: "input_ids_embedded"
  base_type: "Input"
  estimator_group: "Input"
  input_param {
    shape {
      dim: 1
      dim: 1
      dim: 256
      dim: 4096
    }
    layout: "NCHW"
  }
}
layer {
  name: "_model_layers_0_residue_perm_1"
  type: "Ara2PermuteNnp"
  bottom: "input_ids_embedded"
  top: "_model_layers_0_residue_perm_1"
  base_type: "PermuteNnp"
  estimator_group: "PermuteNnp"
  permute_nnp_param {
    order: 0
    order: 1
    order: 3
    order: 2
  }
}
layer {
  name: "_model_layers_0_residue_rshp_1"
  type: "Ara2Reshape"
  bottom: "_model_layers_0_residue_perm_1"
  top: "_model_layers_0_residue_rshp_1"
  base_type: "Reshape"
  estimator_group: "Reshape"
  reshape_param {
    shape {
      dim: 1
      dim: 4096
      dim: 1
      dim: 256
    }
  }
}
layer {
  name: "valid_till"
  type: "Input"
  top: "valid_till"
  base_type: "Input"
  estimator_group: "Input"
  input_param {
    shape {
      dim: 1
      dim: 1
      dim: 1
      dim: 1
    }
    layout: "NCHW"
  }
}
layer {
  name: "_model_layers_0_input_layernorm_Mul_1_ara_LayerNorm_0"
  type: "Ara2LayerNorm"
  bottom: "input_ids_embedded"
  top: "_model_layers_0_input_layernorm_Mul_1_ara_LayerNorm_0"
  base_type: "LayerNorm"
  estimator_group: "LayerNorm"
  layer_norm_param {
    axis: 3
    eps: 1e-06
    output_mean_var: false
    uses_mean: false
  }
}
layer {
  name: "_model_layers_0_residue_perm_2"
  type: "Ara2PermuteNnp"
  bottom: "_model_layers_0_input_layernorm_Mul_1_ara_LayerNorm_0"
  top: "_model_layers_0_residue_perm_2"
  base_type: "PermuteNnp"
  estimator_group: "PermuteNnp"
  permute_nnp_param {
    order: 0
    order: 1
    order: 3
    order: 2
  }
}
layer {
  name: "_model_layers_0_residue_rshp_2"
  type: "Ara2Reshape"
  bottom: "_model_layers_0_residue_perm_2"
  top: "_model_layers_0_residue_rshp_2"
  base_type: "Reshape"
  estimator_group: "Reshape"
  reshape_param {
    shape {
      dim: 1
      dim: 4096
      dim: 1
      dim: 256
    }
  }
}
layer {
  name: "_model_layers_0_self_attn_q_proj_MatMul"
  type: "Ara2Convolution"
  bottom: "_model_layers_0_residue_rshp_2"
  top: "_model_layers_0_self_attn_q_proj_MatMul"
  base_type: "Convolution"
  estimator_group: "Convolution"
  convolution_param {
    num_output: 4096
    bias_term: false
    kernel_size: 1
    kernel_size: 1
  }
}
layer {
  name: "_model_layers_0_self_attn_q_proj_Add_original_bnorm"
  type: "Ara2BatchNorm"
  bottom: "_model_layers_0_self_attn_q_proj_MatMul"
  top: "_model_layers_0_self_attn_q_proj_Add_original_bnorm"
  base_type: "BatchNorm"
  estimator_group: "BatchNorm"
  batch_norm_param {
    use_global_stats: true
    eps: 0.0
  }
}
layer {
  name: "_model_layers_0_self_attn_q_proj_Add_original"
  type: "Ara2Scale"
  bottom: "_model_layers_0_self_attn_q_proj_Add_original_bnorm"
  top: "_model_layers_0_self_attn_q_proj_Add_original"
  base_type: "Scale"
  estimator_group: "Scale"
  scale_param {
    axis: 1
    bias_term: true
  }
}
layer {
  name: "_model_layers_0_self_attn_Reshape_1"
  type: "Ara2Reshape"
  bottom: "_model_layers_0_self_attn_q_proj_Add_original"
  top: "_model_layers_0_self_attn_Reshape_1"
  base_type: "Reshape"
  estimator_group: "Reshape"
  reshape_param {
    shape {
      dim: 1
      dim: 32
      dim: 128
      dim: 256
    }
  }
}
layer {
  name: "_model_layers_0_self_attn_Add"
  type: "Ara2Eltwise"
  bottom: "_model_layers_0_self_attn_Reshape_1"
  bottom: "position_ids_embedded"
  top: "_model_layers_0_self_attn_Add"
  base_type: "Eltwise"
  estimator_group: "Eltwise"
  eltwise_param {
    operation: ROPE
    broadcast1: 0.0
    broadcast1: 1.0
    broadcast1: 0.5
    broadcast1: 0.0
  }
}
layer {
  name: "_model_layers_0_self_attn_k_proj_MatMul"
  type: "Ara2Convolution"
  bottom: "_model_layers_0_residue_rshp_2"
  top: "_model_layers_0_self_attn_k_proj_MatMul"
  base_type: "Convolution"
  estimator_group: "Convolution"
  convolution_param {
    num_output: 4096
    bias_term: false
    kernel_size: 1
    kernel_size: 1
  }
}
layer {
  name: "_model_layers_0_self_attn_k_proj_Add_original_bnorm"
  type: "Ara2BatchNorm"
  bottom: "_model_layers_0_self_attn_k_proj_MatMul"
  top: "_model_layers_0_self_attn_k_proj_Add_original_bnorm"
  base_type: "BatchNorm"
  estimator_group: "BatchNorm"
  batch_norm_param {
    use_global_stats: true
    eps: 0.0
  }
}
layer {
  name: "_model_layers_0_self_attn_k_proj_Add_original"
  type: "Ara2Scale"
  bottom: "_model_layers_0_self_attn_k_proj_Add_original_bnorm"
  top: "_model_layers_0_self_attn_k_proj_Add_original"
  base_type: "Scale"
  estimator_group: "Scale"
  scale_param {
    axis: 1
    bias_term: true
  }
}
layer {
  name: "_model_layers_0_self_attn_Reshape_3"
  type: "Ara2Reshape"
  bottom: "_model_layers_0_self_attn_k_proj_Add_original"
  top: "_model_layers_0_self_attn_Reshape_3"
  base_type: "Reshape"
  estimator_group: "Reshape"
  reshape_param {
    shape {
      dim: 1
      dim: 32
      dim: 128
      dim: 256
    }
  }
}
layer {
  name: "_model_layers_0_self_attn_Add_1"
  type: "Ara2Eltwise"
  bottom: "_model_layers_0_self_attn_Reshape_3"
  bottom: "position_ids_embedded"
  top: "_model_layers_0_self_attn_Add_1"
  base_type: "Eltwise"
  estimator_group: "Eltwise"
  eltwise_param {
    operation: ROPE
    broadcast1: 0.0
    broadcast1: 1.0
    broadcast1: 0.5
    broadcast1: 0.0
  }
}
layer {
  name: "_model_layers_0_self_attn_1_Reshape_1"
  type: "Ara2Reshape"
  bottom: "_model_layers_0_self_attn_Add_1"
  top: "_model_layers_0_self_attn_1_Reshape_1"
  base_type: "Reshape"
  estimator_group: "Reshape"
  reshape_param {
    shape {
      dim: 1
      dim: 1
      dim: 4096
      dim: 256
    }
  }
}
layer {
  name: "_model_layers_0_k_cache"
  type: "Ara2Permute"
  bottom: "_model_layers_0_self_attn_1_Reshape_1"
  top: "_model_layers_0_k_cache"
  base_type: "Permute"
  estimator_group: "Permute"
  permute_param {
    order: 0
    order: 1
    order: 3
    order: 2
  }
  isKeyOutput: 0
  isOutput: true
}
layer {
  name: "_model_layers_0_self_attn_v_proj_MatMul"
  type: "Ara2Convolution"
  bottom: "_model_layers_0_residue_rshp_2"
  top: "_model_layers_0_self_attn_v_proj_MatMul"
  base_type: "Convolution"
  estimator_group: "Convolution"
  convolution_param {
    num_output: 4096
    bias_term: false
    kernel_size: 1
    kernel_size: 1
  }
}
layer {
  name: "_model_layers_0_self_attn_v_proj_Add_original_bnorm"
  type: "Ara2BatchNorm"
  bottom: "_model_layers_0_self_attn_v_proj_MatMul"
  top: "_model_layers_0_self_attn_v_proj_Add_original_bnorm"
  base_type: "BatchNorm"
  estimator_group: "BatchNorm"
  batch_norm_param {
    use_global_stats: true
    eps: 0.0
  }
}
layer {
  name: "_model_layers_0_self_attn_v_proj_Add_original"
  type: "Ara2Scale"
  bottom: "_model_layers_0_self_attn_v_proj_Add_original_bnorm"
  top: "_model_layers_0_self_attn_v_proj_Add_original"
  base_type: "Scale"
  estimator_group: "Scale"
  scale_param {
    axis: 1
    bias_term: true
  }
}
layer {
  name: "_model_layers_0_self_attn_2_Reshape_1"
  type: "Ara2Reshape"
  bottom: "_model_layers_0_self_attn_v_proj_Add_original"
  top: "_model_layers_0_self_attn_2_Reshape_1"
  base_type: "Reshape"
  estimator_group: "Reshape"
  reshape_param {
    shape {
      dim: 1
      dim: 1
      dim: 4096
      dim: 256
    }
  }
}
layer {
  name: "_model_layers_0_v_cache"
  type: "Ara2Permute"
  bottom: "_model_layers_0_self_attn_2_Reshape_1"
  top: "_model_layers_0_v_cache"
  base_type: "Permute"
  estimator_group: "Permute"
  permute_param {
    order: 0
    order: 1
    order: 3
    order: 2
  }
  isValueOutput: 0
  isOutput: true
}
layer {
  name: "_model_layers_0_self_attn_Reshape_2"
  type: "Ara2Reshape"
  bottom: "_model_layers_0_self_attn_v_proj_Add_original"
  top: "_model_layers_0_self_attn_Reshape_2"
  base_type: "Reshape"
  estimator_group: "Reshape"
  reshape_param {
    shape {
      dim: 1
      dim: 32
      dim: 128
      dim: 256
    }
  }
}
layer {
  name: "_model_layers_0_self_attn_Transpose_2"
  type: "Ara2PermuteNnp"
  bottom: "_model_layers_0_self_attn_Reshape_2"
  top: "_model_layers_0_self_attn_Transpose_2"
  base_type: "PermuteNnp"
  estimator_group: "PermuteNnp"
  permute_nnp_param {
    order: 0
    order: 1
    order: 3
    order: 2
  }
}
layer {
  name: "_model_layers_0_self_attn_MatMul"
  type: "Ara2BatchDot"
  bottom: "_model_layers_0_self_attn_Add_1"
  bottom: "_model_layers_0_self_attn_Add"
  top: "_model_layers_0_self_attn_MatMul"
  base_type: "BatchDot"
  estimator_group: "BatchDot"
  batch_dot_param {
    transpose_a: 1
    transpose_b: 0
    multiplier: 0.08838834916
  }
}
layer {
  name: "_model_layers_0_self_attn_Softmax"
  type: "Ara2AttentionSoftmax"
  bottom: "_model_layers_0_self_attn_MatMul"
  bottom: "valid_till"
  top: "_model_layers_0_self_attn_Softmax"
  base_type: "AttentionSoftmax"
  estimator_group: "AttentionSoftmax"
  attentionsoftmax_param {
    axis: 2
  }
}
layer {
  name: "_model_layers_0_self_attn_MatMul_1"
  type: "Ara2BatchDot"
  bottom: "_model_layers_0_self_attn_Transpose_2"
  bottom: "_model_layers_0_self_attn_Softmax"
  top: "_model_layers_0_self_attn_MatMul_1"
  base_type: "BatchDot"
  estimator_group: "BatchDot"
  batch_dot_param {
    transpose_a: 1
    transpose_b: 0
  }
}
layer {
  name: "_model_layers_0_self_attn_o_proj_MatMul_ara_reshape_0"
  type: "Ara2Reshape"
  bottom: "_model_layers_0_self_attn_MatMul_1"
  top: "_model_layers_0_self_attn_o_proj_MatMul_ara_reshape_0"
  base_type: "Reshape"
  estimator_group: "Reshape"
  reshape_param {
    shape {
      dim: 1
      dim: 4096
      dim: 1
      dim: 256
    }
  }
}
layer {
  name: "_model_layers_0_self_attn_o_proj_MatMul_ara_inrp"
  type: "Ara2Convolution"
  bottom: "_model_layers_0_self_attn_o_proj_MatMul_ara_reshape_0"
  top: "_model_layers_0_self_attn_o_proj_MatMul_ara_inrp"
  base_type: "Convolution"
  estimator_group: "Convolution"
  convolution_param {
    num_output: 4096
    bias_term: false
    kernel_size: 1
    kernel_size: 1
  }
}
layer {
  name: "_model_layers_0_Add"
  type: "Ara2Eltwise"
  bottom: "_model_layers_0_self_attn_o_proj_MatMul_ara_inrp"
  bottom: "_model_layers_0_residue_rshp_1"
  top: "_model_layers_0_Add"
  base_type: "Eltwise"
  estimator_group: "Eltwise"
  eltwise_param {
    operation: SUM
    broadcast0: 0.0
    broadcast0: 0.0
    broadcast0: 0.0
    broadcast1: 0.0
    broadcast1: 0.0
    broadcast1: 0.0
  }
}
layer {
  name: "_model_layers_0_rshp_5_Reshape"
  type: "Ara2Reshape"
  bottom: "_model_layers_0_Add"
  top: "_model_layers_0_rshp_5_Reshape"
  base_type: "Reshape"
  estimator_group: "Reshape"
  reshape_param {
    shape {
      dim: 1
      dim: 1
      dim: 4096
      dim: 256
    }
  }
}
layer {
  name: "_model_layers_0_prm_5_PermuteNnp"
  type: "Ara2PermuteNnp"
  bottom: "_model_layers_0_rshp_5_Reshape"
  top: "_model_layers_0_prm_5_PermuteNnp"
  base_type: "PermuteNnp"
  estimator_group: "PermuteNnp"
  permute_nnp_param {
    order: 0
    order: 1
    order: 3
    order: 2
  }
}
layer {
  name: "_model_layers_0_post_attention_layernorm_Mul_1_ara_LayerNorm_0"
  type: "Ara2LayerNorm"
  bottom: "_model_layers_0_prm_5_PermuteNnp"
  top: "_model_layers_0_post_attention_layernorm_Mul_1_ara_LayerNorm_0"
  base_type: "LayerNorm"
  estimator_group: "LayerNorm"
  layer_norm_param {
    axis: 3
    eps: 1e-06
    output_mean_var: false
    uses_mean: false
  }
}
layer {
  name: "_model_layers_0_prm_6_PermuteNnp"
  type: "Ara2PermuteNnp"
  bottom: "_model_layers_0_post_attention_layernorm_Mul_1_ara_LayerNorm_0"
  top: "_model_layers_0_prm_6_PermuteNnp"
  base_type: "PermuteNnp"
  estimator_group: "PermuteNnp"
  permute_nnp_param {
    order: 0
    order: 1
    order: 3
    order: 2
  }
}
layer {
  name: "_model_layers_0_rshp_6_Reshape"
  type: "Ara2Reshape"
  bottom: "_model_layers_0_prm_6_PermuteNnp"
  top: "_model_layers_0_rshp_6_Reshape"
  base_type: "Reshape"
  estimator_group: "Reshape"
  reshape_param {
    shape {
      dim: 1
      dim: 4096
      dim: 1
      dim: 256
    }
  }
}
layer {
  name: "_model_layers_0_mlp_up_proj_MatMul_ara_inrp"
  type: "Ara2Convolution"
  bottom: "_model_layers_0_rshp_6_Reshape"
  top: "_model_layers_0_mlp_up_proj_MatMul_ara_inrp"
  base_type: "Convolution"
  estimator_group: "Convolution"
  convolution_param {
    num_output: 11008
    bias_term: false
    kernel_size: 1
    kernel_size: 1
  }
}
layer {
  name: "_model_layers_0_mlp_gate_proj_MatMul_ara_inrp"
  type: "Ara2Convolution"
  bottom: "_model_layers_0_rshp_6_Reshape"
  top: "_model_layers_0_mlp_gate_proj_MatMul_ara_inrp"
  base_type: "Convolution"
  estimator_group: "Convolution"
  convolution_param {
    num_output: 11008
    bias_term: false
    kernel_size: 1
    kernel_size: 1
  }
}
layer {
  name: "_model_layers_0_mlp_act_fn_Mul"
  type: "Ara2Swish"
  bottom: "_model_layers_0_mlp_gate_proj_MatMul_ara_inrp"
  top: "_model_layers_0_mlp_act_fn_Mul"
  base_type: "Swish"
  estimator_group: "activation"
}
layer {
  name: "_model_layers_0_mlp_Mul"
  type: "Ara2Eltwise"
  bottom: "_model_layers_0_mlp_up_proj_MatMul_ara_inrp"
  bottom: "_model_layers_0_mlp_act_fn_Mul"
  top: "_model_layers_0_mlp_Mul"
  base_type: "Eltwise"
  estimator_group: "Eltwise"
  eltwise_param {
    operation: PROD
    broadcast0: 0.0
    broadcast0: 0.0
    broadcast0: 0.0
    broadcast1: 0.0
    broadcast1: 0.0
    broadcast1: 0.0
  }
}
layer {
  name: "_model_layers_0_mlp_down_proj_MatMul_ara_inrp"
  type: "Ara2Convolution"
  bottom: "_model_layers_0_mlp_Mul"
  top: "_model_layers_0_mlp_down_proj_MatMul_ara_inrp"
  base_type: "Convolution"
  estimator_group: "Convolution"
  convolution_param {
    num_output: 4096
    bias_term: false
    kernel_size: 1
    kernel_size: 1
  }
}
layer {
  name: "_model_layers_0_Add_1"
  type: "Ara2Eltwise"
  bottom: "_model_layers_0_Add"
  bottom: "_model_layers_0_mlp_down_proj_MatMul_ara_inrp"
  top: "_model_layers_0_Add_1"
  base_type: "Eltwise"
  estimator_group: "Eltwise"
  eltwise_param {
    operation: SUM
    broadcast0: 0.0
    broadcast0: 0.0
    broadcast0: 0.0
    broadcast1: 0.0
    broadcast1: 0.0
    broadcast1: 0.0
  }
  isOutput: true
}
layer {
  name: "_model_layers_0_residue_perm_3"
  type: "Ara2Reshape"
  bottom: "_model_layers_0_Add_1"
  top: "_model_layers_0_residue_perm_3"
  base_type: "Reshape"
  estimator_group: "Reshape"
  reshape_param {
    shape {
      dim: 1
      dim: 1
      dim: 4096
      dim: 256
    }
  }
}
layer {
  name: "_model_layers_0_residue_rshp_3"
  type: "Ara2PermuteNnp"
  bottom: "_model_layers_0_residue_perm_3"
  top: "_model_layers_0_residue_rshp_3"
  base_type: "PermuteNnp"
  estimator_group: "PermuteNnp"
  permute_nnp_param {
    order: 0
    order: 1
    order: 3
    order: 2
  }
}
layer {
  name: "_model_layers_1_residue_perm_1"
  type: "Ara2PermuteNnp"
  bottom: "_model_layers_0_residue_rshp_3"
  top: "_model_layers_1_residue_perm_1"
  base_type: "PermuteNnp"
  estimator_group: "PermuteNnp"
  permute_nnp_param {
    order: 0
    order: 1
    order: 3
    order: 2
  }
}
layer {
  name: "_model_layers_1_residue_rshp_1"
  type: "Ara2Reshape"
  bottom: "_model_layers_1_residue_perm_1"
  top: "_model_layers_1_residue_rshp_1"
  base_type: "Reshape"
  estimator_group: "Reshape"
  reshape_param {
    shape {
      dim: 1
      dim: 4096
      dim: 1
      dim: 256
    }
  }
}

layer {
  name: "_model_layers_1_input_layernorm_Mul_1_ara_LayerNorm_0"
  type: "Ara2LayerNorm"
  bottom: "_model_layers_0_residue_rshp_3"
  top: "_model_layers_1_input_layernorm_Mul_1_ara_LayerNorm_0"
  base_type: "LayerNorm"
  estimator_group: "LayerNorm"
  layer_norm_param {
    axis: 3
    eps: 1e-06
    output_mean_var: false
    uses_mean: false
  }
}
layer {
  name: "_model_layers_1_residue_perm_2"
  type: "Ara2PermuteNnp"
  bottom: "_model_layers_1_input_layernorm_Mul_1_ara_LayerNorm_0"
  top: "_model_layers_1_residue_perm_2"
  base_type: "PermuteNnp"
  estimator_group: "PermuteNnp"
  permute_nnp_param {
    order: 0
    order: 1
    order: 3
    order: 2
  }
}
layer {
  name: "_model_layers_1_residue_rshp_2"
  type: "Ara2Reshape"
  bottom: "_model_layers_1_residue_perm_2"
  top: "_model_layers_1_residue_rshp_2"
  base_type: "Reshape"
  estimator_group: "Reshape"
  reshape_param {
    shape {
      dim: 1
      dim: 4096
      dim: 1
      dim: 256
    }
  }
}
layer {
  name: "_model_layers_1_self_attn_q_proj_MatMul"
  type: "Ara2Convolution"
  bottom: "_model_layers_1_residue_rshp_2"
  top: "_model_layers_1_self_attn_q_proj_MatMul"
  base_type: "Convolution"
  estimator_group: "Convolution"
  convolution_param {
    num_output: 4096
    bias_term: false
    kernel_size: 1
    kernel_size: 1
  }
}
layer {
  name: "_model_layers_1_self_attn_q_proj_Add_original_bnorm"
  type: "Ara2BatchNorm"
  bottom: "_model_layers_1_self_attn_q_proj_MatMul"
  top: "_model_layers_1_self_attn_q_proj_Add_original_bnorm"
  base_type: "BatchNorm"
  estimator_group: "BatchNorm"
  batch_norm_param {
    use_global_stats: true
    eps: 0.0
  }
}
layer {
  name: "_model_layers_1_self_attn_q_proj_Add_original"
  type: "Ara2Scale"
  bottom: "_model_layers_1_self_attn_q_proj_Add_original_bnorm"
  top: "_model_layers_1_self_attn_q_proj_Add_original"
  base_type: "Scale"
  estimator_group: "Scale"
  scale_param {
    axis: 1
    bias_term: true
  }
}
layer {
  name: "_model_layers_1_self_attn_Reshape_1"
  type: "Ara2Reshape"
  bottom: "_model_layers_1_self_attn_q_proj_Add_original"
  top: "_model_layers_1_self_attn_Reshape_1"
  base_type: "Reshape"
  estimator_group: "Reshape"
  reshape_param {
    shape {
      dim: 1
      dim: 32
      dim: 128
      dim: 256
    }
  }
}
layer {
  name: "_model_layers_1_self_attn_Add"
  type: "Ara2Eltwise"
  bottom: "_model_layers_1_self_attn_Reshape_1"
  bottom: "position_ids_embedded"
  top: "_model_layers_1_self_attn_Add"
  base_type: "Eltwise"
  estimator_group: "Eltwise"
  eltwise_param {
    operation: ROPE
    broadcast1: 0.0
    broadcast1: 1.0
    broadcast1: 0.5
    broadcast1: 0.0
  }
}
layer {
  name: "_model_layers_1_self_attn_k_proj_MatMul"
  type: "Ara2Convolution"
  bottom: "_model_layers_1_residue_rshp_2"
  top: "_model_layers_1_self_attn_k_proj_MatMul"
  base_type: "Convolution"
  estimator_group: "Convolution"
  convolution_param {
    num_output: 4096
    bias_term: false
    kernel_size: 1
    kernel_size: 1
  }
}
layer {
  name: "_model_layers_1_self_attn_k_proj_Add_original_bnorm"
  type: "Ara2BatchNorm"
  bottom: "_model_layers_1_self_attn_k_proj_MatMul"
  top: "_model_layers_1_self_attn_k_proj_Add_original_bnorm"
  base_type: "BatchNorm"
  estimator_group: "BatchNorm"
  batch_norm_param {
    use_global_stats: true
    eps: 0.0
  }
}
layer {
  name: "_model_layers_1_self_attn_k_proj_Add_original"
  type: "Ara2Scale"
  bottom: "_model_layers_1_self_attn_k_proj_Add_original_bnorm"
  top: "_model_layers_1_self_attn_k_proj_Add_original"
  base_type: "Scale"
  estimator_group: "Scale"
  scale_param {
    axis: 1
    bias_term: true
  }
}
layer {
  name: "_model_layers_1_self_attn_Reshape_3"
  type: "Ara2Reshape"
  bottom: "_model_layers_1_self_attn_k_proj_Add_original"
  top: "_model_layers_1_self_attn_Reshape_3"
  base_type: "Reshape"
  estimator_group: "Reshape"
  reshape_param {
    shape {
      dim: 1
      dim: 32
      dim: 128
      dim: 256
    }
  }
}
layer {
  name: "_model_layers_1_self_attn_Add_1"
  type: "Ara2Eltwise"
  bottom: "_model_layers_1_self_attn_Reshape_3"
  bottom: "position_ids_embedded"
  top: "_model_layers_1_self_attn_Add_1"
  base_type: "Eltwise"
  estimator_group: "Eltwise"
  eltwise_param {
    operation: ROPE
    broadcast1: 0.0
    broadcast1: 1.0
    broadcast1: 0.5
    broadcast1: 0.0
  }
}
layer {
  name: "_model_layers_1_self_attn_1_Reshape_1"
  type: "Ara2Reshape"
  bottom: "_model_layers_1_self_attn_Add_1"
  top: "_model_layers_1_self_attn_1_Reshape_1"
  base_type: "Reshape"
  estimator_group: "Reshape"
  reshape_param {
    shape {
      dim: 1
      dim: 1
      dim: 4096
      dim: 256
    }
  }
}
layer {
  name: "_model_layers_1_k_cache"
  type: "Ara2Permute"
  bottom: "_model_layers_1_self_attn_1_Reshape_1"
  top: "_model_layers_1_k_cache"
  base_type: "Permute"
  estimator_group: "Permute"
  permute_param {
    order: 0
    order: 1
    order: 3
    order: 2
  }
  isKeyOutput: 1
  isOutput: true
}
layer {
  name: "_model_layers_1_self_attn_v_proj_MatMul"
  type: "Ara2Convolution"
  bottom: "_model_layers_1_residue_rshp_2"
  top: "_model_layers_1_self_attn_v_proj_MatMul"
  base_type: "Convolution"
  estimator_group: "Convolution"
  convolution_param {
    num_output: 4096
    bias_term: false
    kernel_size: 1
    kernel_size: 1
  }
}
layer {
  name: "_model_layers_1_self_attn_v_proj_Add_original_bnorm"
  type: "Ara2BatchNorm"
  bottom: "_model_layers_1_self_attn_v_proj_MatMul"
  top: "_model_layers_1_self_attn_v_proj_Add_original_bnorm"
  base_type: "BatchNorm"
  estimator_group: "BatchNorm"
  batch_norm_param {
    use_global_stats: true
    eps: 0.0
  }
}
layer {
  name: "_model_layers_1_self_attn_v_proj_Add_original"
  type: "Ara2Scale"
  bottom: "_model_layers_1_self_attn_v_proj_Add_original_bnorm"
  top: "_model_layers_1_self_attn_v_proj_Add_original"
  base_type: "Scale"
  estimator_group: "Scale"
  scale_param {
    axis: 1
    bias_term: true
  }
}
layer {
  name: "_model_layers_1_self_attn_2_Reshape_1"
  type: "Ara2Reshape"
  bottom: "_model_layers_1_self_attn_v_proj_Add_original"
  top: "_model_layers_1_self_attn_2_Reshape_1"
  base_type: "Reshape"
  estimator_group: "Reshape"
  reshape_param {
    shape {
      dim: 1
      dim: 1
      dim: 4096
      dim: 256
    }
  }
}
layer {
  name: "_model_layers_1_v_cache"
  type: "Ara2Permute"
  bottom: "_model_layers_1_self_attn_2_Reshape_1"
  top: "_model_layers_1_v_cache"
  base_type: "Permute"
  estimator_group: "Permute"
  permute_param {
    order: 0
    order: 1
    order: 3
    order: 2
  }
  isValueOutput: 1
  isOutput: true
}
layer {
  name: "_model_layers_1_self_attn_Reshape_2"
  type: "Ara2Reshape"
  bottom: "_model_layers_1_self_attn_v_proj_Add_original"
  top: "_model_layers_1_self_attn_Reshape_2"
  base_type: "Reshape"
  estimator_group: "Reshape"
  reshape_param {
    shape {
      dim: 1
      dim: 32
      dim: 128
      dim: 256
    }
  }
}
layer {
  name: "_model_layers_1_self_attn_Transpose_2"
  type: "Ara2PermuteNnp"
  bottom: "_model_layers_1_self_attn_Reshape_2"
  top: "_model_layers_1_self_attn_Transpose_2"
  base_type: "PermuteNnp"
  estimator_group: "PermuteNnp"
  permute_nnp_param {
    order: 0
    order: 1
    order: 3
    order: 2
  }
}
layer {
  name: "_model_layers_1_self_attn_MatMul"
  type: "Ara2BatchDot"
  bottom: "_model_layers_1_self_attn_Add_1"
  bottom: "_model_layers_1_self_attn_Add"
  top: "_model_layers_1_self_attn_MatMul"
  base_type: "BatchDot"
  estimator_group: "BatchDot"
  batch_dot_param {
    transpose_a: 1
    transpose_b: 0
    multiplier: 0.08838834916
  }
}
layer {
  name: "_model_layers_1_self_attn_Softmax"
  type: "Ara2AttentionSoftmax"
  bottom: "_model_layers_1_self_attn_MatMul"
  bottom: "valid_till"
  top: "_model_layers_1_self_attn_Softmax"
  base_type: "AttentionSoftmax"
  estimator_group: "AttentionSoftmax"
  attentionsoftmax_param {
    axis: 2
  }
}
layer {
  name: "_model_layers_1_self_attn_MatMul_1"
  type: "Ara2BatchDot"
  bottom: "_model_layers_1_self_attn_Transpose_2"
  bottom: "_model_layers_1_self_attn_Softmax"
  top: "_model_layers_1_self_attn_MatMul_1"
  base_type: "BatchDot"
  estimator_group: "BatchDot"
  batch_dot_param {
    transpose_a: 1
    transpose_b: 0
  }
}
layer {
  name: "_model_layers_1_self_attn_o_proj_MatMul_ara_reshape_0"
  type: "Ara2Reshape"
  bottom: "_model_layers_1_self_attn_MatMul_1"
  top: "_model_layers_1_self_attn_o_proj_MatMul_ara_reshape_0"
  base_type: "Reshape"
  estimator_group: "Reshape"
  reshape_param {
    shape {
      dim: 1
      dim: 4096
      dim: 1
      dim: 256
    }
  }
}
layer {
  name: "_model_layers_1_self_attn_o_proj_MatMul_ara_inrp"
  type: "Ara2Convolution"
  bottom: "_model_layers_1_self_attn_o_proj_MatMul_ara_reshape_0"
  top: "_model_layers_1_self_attn_o_proj_MatMul_ara_inrp"
  base_type: "Convolution"
  estimator_group: "Convolution"
  convolution_param {
    num_output: 4096
    bias_term: false
    kernel_size: 1
    kernel_size: 1
  }
}
layer {
  name: "_model_layers_1_Add"
  type: "Ara2Eltwise"
  bottom: "_model_layers_1_self_attn_o_proj_MatMul_ara_inrp"
  bottom: "_model_layers_1_residue_rshp_1"
  top: "_model_layers_1_Add"
  base_type: "Eltwise"
  estimator_group: "Eltwise"
  eltwise_param {
    operation: SUM
    broadcast0: 0.0
    broadcast0: 0.0
    broadcast0: 0.0
    broadcast1: 0.0
    broadcast1: 0.0
    broadcast1: 0.0
  }
}
layer {
  name: "_model_layers_1_rshp_5_Reshape"
  type: "Ara2Reshape"
  bottom: "_model_layers_1_Add"
  top: "_model_layers_1_rshp_5_Reshape"
  base_type: "Reshape"
  estimator_group: "Reshape"
  reshape_param {
    shape {
      dim: 1
      dim: 1
      dim: 4096
      dim: 256
    }
  }
}
layer {
  name: "_model_layers_1_prm_5_PermuteNnp"
  type: "Ara2PermuteNnp"
  bottom: "_model_layers_1_rshp_5_Reshape"
  top: "_model_layers_1_prm_5_PermuteNnp"
  base_type: "PermuteNnp"
  estimator_group: "PermuteNnp"
  permute_nnp_param {
    order: 0
    order: 1
    order: 3
    order: 2
  }
}
layer {
  name: "_model_layers_1_post_attention_layernorm_Mul_1_ara_LayerNorm_0"
  type: "Ara2LayerNorm"
  bottom: "_model_layers_1_prm_5_PermuteNnp"
  top: "_model_layers_1_post_attention_layernorm_Mul_1_ara_LayerNorm_0"
  base_type: "LayerNorm"
  estimator_group: "LayerNorm"
  layer_norm_param {
    axis: 3
    eps: 1e-06
    output_mean_var: false
    uses_mean: false
  }
}
layer {
  name: "_model_layers_1_prm_6_PermuteNnp"
  type: "Ara2PermuteNnp"
  bottom: "_model_layers_1_post_attention_layernorm_Mul_1_ara_LayerNorm_0"
  top: "_model_layers_1_prm_6_PermuteNnp"
  base_type: "PermuteNnp"
  estimator_group: "PermuteNnp"
  permute_nnp_param {
    order: 0
    order: 1
    order: 3
    order: 2
  }
}
layer {
  name: "_model_layers_1_rshp_6_Reshape"
  type: "Ara2Reshape"
  bottom: "_model_layers_1_prm_6_PermuteNnp"
  top: "_model_layers_1_rshp_6_Reshape"
  base_type: "Reshape"
  estimator_group: "Reshape"
  reshape_param {
    shape {
      dim: 1
      dim: 4096
      dim: 1
      dim: 256
    }
  }
}
layer {
  name: "_model_layers_1_mlp_up_proj_MatMul_ara_inrp"
  type: "Ara2Convolution"
  bottom: "_model_layers_1_rshp_6_Reshape"
  top: "_model_layers_1_mlp_up_proj_MatMul_ara_inrp"
  base_type: "Convolution"
  estimator_group: "Convolution"
  convolution_param {
    num_output: 11008
    bias_term: false
    kernel_size: 1
    kernel_size: 1
  }
}
layer {
  name: "_model_layers_1_mlp_gate_proj_MatMul_ara_inrp"
  type: "Ara2Convolution"
  bottom: "_model_layers_1_rshp_6_Reshape"
  top: "_model_layers_1_mlp_gate_proj_MatMul_ara_inrp"
  base_type: "Convolution"
  estimator_group: "Convolution"
  convolution_param {
    num_output: 11008
    bias_term: false
    kernel_size: 1
    kernel_size: 1
  }
}
layer {
  name: "_model_layers_1_mlp_act_fn_Mul"
  type: "Ara2Swish"
  bottom: "_model_layers_1_mlp_gate_proj_MatMul_ara_inrp"
  top: "_model_layers_1_mlp_act_fn_Mul"
  base_type: "Swish"
  estimator_group: "activation"
}
layer {
  name: "_model_layers_1_mlp_Mul"
  type: "Ara2Eltwise"
  bottom: "_model_layers_1_mlp_up_proj_MatMul_ara_inrp"
  bottom: "_model_layers_1_mlp_act_fn_Mul"
  top: "_model_layers_1_mlp_Mul"
  base_type: "Eltwise"
  estimator_group: "Eltwise"
  eltwise_param {
    operation: PROD
    broadcast0: 0.0
    broadcast0: 0.0
    broadcast0: 0.0
    broadcast1: 0.0
    broadcast1: 0.0
    broadcast1: 0.0
  }
}
layer {
  name: "_model_layers_1_mlp_down_proj_MatMul_ara_inrp"
  type: "Ara2Convolution"
  bottom: "_model_layers_1_mlp_Mul"
  top: "_model_layers_1_mlp_down_proj_MatMul_ara_inrp"
  base_type: "Convolution"
  estimator_group: "Convolution"
  convolution_param {
    num_output: 4096
    bias_term: false
    kernel_size: 1
    kernel_size: 1
  }
}
layer {
  name: "_model_layers_1_Add_1"
  type: "Ara2Eltwise"
  bottom: "_model_layers_1_Add"
  bottom: "_model_layers_1_mlp_down_proj_MatMul_ara_inrp"
  top: "_model_layers_1_Add_1"
  base_type: "Eltwise"
  estimator_group: "Eltwise"
  eltwise_param {
    operation: SUM
    broadcast0: 0.0
    broadcast0: 0.0
    broadcast0: 0.0
    broadcast1: 0.0
    broadcast1: 0.0
    broadcast1: 0.0
  }
  isOutput: true
}
layer {
  name: "_model_layers_1_residue_perm_3"
  type: "Ara2Reshape"
  bottom: "_model_layers_1_Add_1"
  top: "_model_layers_1_residue_perm_3"
  base_type: "Reshape"
  estimator_group: "Reshape"
  reshape_param {
    shape {
      dim: 1
      dim: 1
      dim: 4096
      dim: 256
    }
  }
}
layer {
  name: "_model_layers_1_residue_rshp_3"
  type: "Ara2PermuteNnp"
  bottom: "_model_layers_1_residue_perm_3"
  top: "_model_layers_1_residue_rshp_3"
  base_type: "PermuteNnp"
  estimator_group: "PermuteNnp"
  permute_nnp_param {
    order: 0
    order: 1
    order: 3
    order: 2
  }
}
layer {
  name: "_model_layers_2_residue_perm_1"
  type: "Ara2PermuteNnp"
  bottom: "_model_layers_1_residue_rshp_3"
  top: "_model_layers_2_residue_perm_1"
  base_type: "PermuteNnp"
  estimator_group: "PermuteNnp"
  permute_nnp_param {
    order: 0
    order: 1
    order: 3
    order: 2
  }
}
layer {
  name: "_model_layers_2_residue_rshp_1"
  type: "Ara2Reshape"
  bottom: "_model_layers_2_residue_perm_1"
  top: "_model_layers_2_residue_rshp_1"
  base_type: "Reshape"
  estimator_group: "Reshape"
  reshape_param {
    shape {
      dim: 1
      dim: 4096
      dim: 1
      dim: 256
    }
  }
}

layer {
  name: "_model_layers_2_input_layernorm_Mul_1_ara_LayerNorm_0"
  type: "Ara2LayerNorm"
  bottom: "_model_layers_1_residue_rshp_3"
  top: "_model_layers_2_input_layernorm_Mul_1_ara_LayerNorm_0"
  base_type: "LayerNorm"
  estimator_group: "LayerNorm"
  layer_norm_param {
    axis: 3
    eps: 1e-06
    output_mean_var: false
    uses_mean: false
  }
}
layer {
  name: "_model_layers_2_residue_perm_2"
  type: "Ara2PermuteNnp"
  bottom: "_model_layers_2_input_layernorm_Mul_1_ara_LayerNorm_0"
  top: "_model_layers_2_residue_perm_2"
  base_type: "PermuteNnp"
  estimator_group: "PermuteNnp"
  permute_nnp_param {
    order: 0
    order: 1
    order: 3
    order: 2
  }
}
layer {
  name: "_model_layers_2_residue_rshp_2"
  type: "Ara2Reshape"
  bottom: "_model_layers_2_residue_perm_2"
  top: "_model_layers_2_residue_rshp_2"
  base_type: "Reshape"
  estimator_group: "Reshape"
  reshape_param {
    shape {
      dim: 1
      dim: 4096
      dim: 1
      dim: 256
    }
  }
}
layer {
  name: "_model_layers_2_self_attn_q_proj_MatMul"
  type: "Ara2Convolution"
  bottom: "_model_layers_2_residue_rshp_2"
  top: "_model_layers_2_self_attn_q_proj_MatMul"
  base_type: "Convolution"
  estimator_group: "Convolution"
  convolution_param {
    num_output: 4096
    bias_term: false
    kernel_size: 1
    kernel_size: 1
  }
}
layer {
  name: "_model_layers_2_self_attn_q_proj_Add_original_bnorm"
  type: "Ara2BatchNorm"
  bottom: "_model_layers_2_self_attn_q_proj_MatMul"
  top: "_model_layers_2_self_attn_q_proj_Add_original_bnorm"
  base_type: "BatchNorm"
  estimator_group: "BatchNorm"
  batch_norm_param {
    use_global_stats: true
    eps: 0.0
  }
}
layer {
  name: "_model_layers_2_self_attn_q_proj_Add_original"
  type: "Ara2Scale"
  bottom: "_model_layers_2_self_attn_q_proj_Add_original_bnorm"
  top: "_model_layers_2_self_attn_q_proj_Add_original"
  base_type: "Scale"
  estimator_group: "Scale"
  scale_param {
    axis: 1
    bias_term: true
  }
}
layer {
  name: "_model_layers_2_self_attn_Reshape_1"
  type: "Ara2Reshape"
  bottom: "_model_layers_2_self_attn_q_proj_Add_original"
  top: "_model_layers_2_self_attn_Reshape_1"
  base_type: "Reshape"
  estimator_group: "Reshape"
  reshape_param {
    shape {
      dim: 1
      dim: 32
      dim: 128
      dim: 256
    }
  }
}
layer {
  name: "_model_layers_2_self_attn_Add"
  type: "Ara2Eltwise"
  bottom: "_model_layers_2_self_attn_Reshape_1"
  bottom: "position_ids_embedded"
  top: "_model_layers_2_self_attn_Add"
  base_type: "Eltwise"
  estimator_group: "Eltwise"
  eltwise_param {
    operation: ROPE
    broadcast1: 0.0
    broadcast1: 1.0
    broadcast1: 0.5
    broadcast1: 0.0
  }
}
layer {
  name: "_model_layers_2_self_attn_k_proj_MatMul"
  type: "Ara2Convolution"
  bottom: "_model_layers_2_residue_rshp_2"
  top: "_model_layers_2_self_attn_k_proj_MatMul"
  base_type: "Convolution"
  estimator_group: "Convolution"
  convolution_param {
    num_output: 4096
    bias_term: false
    kernel_size: 1
    kernel_size: 1
  }
}
layer {
  name: "_model_layers_2_self_attn_k_proj_Add_original_bnorm"
  type: "Ara2BatchNorm"
  bottom: "_model_layers_2_self_attn_k_proj_MatMul"
  top: "_model_layers_2_self_attn_k_proj_Add_original_bnorm"
  base_type: "BatchNorm"
  estimator_group: "BatchNorm"
  batch_norm_param {
    use_global_stats: true
    eps: 0.0
  }
}
layer {
  name: "_model_layers_2_self_attn_k_proj_Add_original"
  type: "Ara2Scale"
  bottom: "_model_layers_2_self_attn_k_proj_Add_original_bnorm"
  top: "_model_layers_2_self_attn_k_proj_Add_original"
  base_type: "Scale"
  estimator_group: "Scale"
  scale_param {
    axis: 1
    bias_term: true
  }
}
layer {
  name: "_model_layers_2_self_attn_Reshape_3"
  type: "Ara2Reshape"
  bottom: "_model_layers_2_self_attn_k_proj_Add_original"
  top: "_model_layers_2_self_attn_Reshape_3"
  base_type: "Reshape"
  estimator_group: "Reshape"
  reshape_param {
    shape {
      dim: 1
      dim: 32
      dim: 128
      dim: 256
    }
  }
}
layer {
  name: "_model_layers_2_self_attn_Add_1"
  type: "Ara2Eltwise"
  bottom: "_model_layers_2_self_attn_Reshape_3"
  bottom: "position_ids_embedded"
  top: "_model_layers_2_self_attn_Add_1"
  base_type: "Eltwise"
  estimator_group: "Eltwise"
  eltwise_param {
    operation: ROPE
    broadcast1: 0.0
    broadcast1: 1.0
    broadcast1: 0.5
    broadcast1: 0.0
  }
}
layer {
  name: "_model_layers_2_self_attn_1_Reshape_1"
  type: "Ara2Reshape"
  bottom: "_model_layers_2_self_attn_Add_1"
  top: "_model_layers_2_self_attn_1_Reshape_1"
  base_type: "Reshape"
  estimator_group: "Reshape"
  reshape_param {
    shape {
      dim: 1
      dim: 1
      dim: 4096
      dim: 256
    }
  }
}
layer {
  name: "_model_layers_2_k_cache"
  type: "Ara2Permute"
  bottom: "_model_layers_2_self_attn_1_Reshape_1"
  top: "_model_layers_2_k_cache"
  base_type: "Permute"
  estimator_group: "Permute"
  permute_param {
    order: 0
    order: 1
    order: 3
    order: 2
  }
  isKeyOutput: 2
  isOutput: true
}
layer {
  name: "_model_layers_2_self_attn_v_proj_MatMul"
  type: "Ara2Convolution"
  bottom: "_model_layers_2_residue_rshp_2"
  top: "_model_layers_2_self_attn_v_proj_MatMul"
  base_type: "Convolution"
  estimator_group: "Convolution"
  convolution_param {
    num_output: 4096
    bias_term: false
    kernel_size: 1
    kernel_size: 1
  }
}
layer {
  name: "_model_layers_2_self_attn_v_proj_Add_original_bnorm"
  type: "Ara2BatchNorm"
  bottom: "_model_layers_2_self_attn_v_proj_MatMul"
  top: "_model_layers_2_self_attn_v_proj_Add_original_bnorm"
  base_type: "BatchNorm"
  estimator_group: "BatchNorm"
  batch_norm_param {
    use_global_stats: true
    eps: 0.0
  }
}
layer {
  name: "_model_layers_2_self_attn_v_proj_Add_original"
  type: "Ara2Scale"
  bottom: "_model_layers_2_self_attn_v_proj_Add_original_bnorm"
  top: "_model_layers_2_self_attn_v_proj_Add_original"
  base_type: "Scale"
  estimator_group: "Scale"
  scale_param {
    axis: 1
    bias_term: true
  }
}
layer {
  name: "_model_layers_2_self_attn_2_Reshape_1"
  type: "Ara2Reshape"
  bottom: "_model_layers_2_self_attn_v_proj_Add_original"
  top: "_model_layers_2_self_attn_2_Reshape_1"
  base_type: "Reshape"
  estimator_group: "Reshape"
  reshape_param {
    shape {
      dim: 1
      dim: 1
      dim: 4096
      dim: 256
    }
  }
}
layer {
  name: "_model_layers_2_v_cache"
  type: "Ara2Permute"
  bottom: "_model_layers_2_self_attn_2_Reshape_1"
  top: "_model_layers_2_v_cache"
  base_type: "Permute"
  estimator_group: "Permute"
  permute_param {
    order: 0
    order: 1
    order: 3
    order: 2
  }
  isValueOutput: 2
  isOutput: true
}
layer {
  name: "_model_layers_2_self_attn_Reshape_2"
  type: "Ara2Reshape"
  bottom: "_model_layers_2_self_attn_v_proj_Add_original"
  top: "_model_layers_2_self_attn_Reshape_2"
  base_type: "Reshape"
  estimator_group: "Reshape"
  reshape_param {
    shape {
      dim: 1
      dim: 32
      dim: 128
      dim: 256
    }
  }
}
layer {
  name: "_model_layers_2_self_attn_Transpose_2"
  type: "Ara2PermuteNnp"
  bottom: "_model_layers_2_self_attn_Reshape_2"
  top: "_model_layers_2_self_attn_Transpose_2"
  base_type: "PermuteNnp"
  estimator_group: "PermuteNnp"
  permute_nnp_param {
    order: 0
    order: 1
    order: 3
    order: 2
  }
}
layer {
  name: "_model_layers_2_self_attn_MatMul"
  type: "Ara2BatchDot"
  bottom: "_model_layers_2_self_attn_Add_1"
  bottom: "_model_layers_2_self_attn_Add"
  top: "_model_layers_2_self_attn_MatMul"
  base_type: "BatchDot"
  estimator_group: "BatchDot"
  batch_dot_param {
    transpose_a: 1
    transpose_b: 0
    multiplier: 0.08838834916
  }
}
layer {
  name: "_model_layers_2_self_attn_Softmax"
  type: "Ara2AttentionSoftmax"
  bottom: "_model_layers_2_self_attn_MatMul"
  bottom: "valid_till"
  top: "_model_layers_2_self_attn_Softmax"
  base_type: "AttentionSoftmax"
  estimator_group: "AttentionSoftmax"
  attentionsoftmax_param {
    axis: 2
  }
}
layer {
  name: "_model_layers_2_self_attn_MatMul_1"
  type: "Ara2BatchDot"
  bottom: "_model_layers_2_self_attn_Transpose_2"
  bottom: "_model_layers_2_self_attn_Softmax"
  top: "_model_layers_2_self_attn_MatMul_1"
  base_type: "BatchDot"
  estimator_group: "BatchDot"
  batch_dot_param {
    transpose_a: 1
    transpose_b: 0
  }
}
layer {
  name: "_model_layers_2_self_attn_o_proj_MatMul_ara_reshape_0"
  type: "Ara2Reshape"
  bottom: "_model_layers_2_self_attn_MatMul_1"
  top: "_model_layers_2_self_attn_o_proj_MatMul_ara_reshape_0"
  base_type: "Reshape"
  estimator_group: "Reshape"
  reshape_param {
    shape {
      dim: 1
      dim: 4096
      dim: 1
      dim: 256
    }
  }
}
layer {
  name: "_model_layers_2_self_attn_o_proj_MatMul_ara_inrp"
  type: "Ara2Convolution"
  bottom: "_model_layers_2_self_attn_o_proj_MatMul_ara_reshape_0"
  top: "_model_layers_2_self_attn_o_proj_MatMul_ara_inrp"
  base_type: "Convolution"
  estimator_group: "Convolution"
  convolution_param {
    num_output: 4096
    bias_term: false
    kernel_size: 1
    kernel_size: 1
  }
}
layer {
  name: "_model_layers_2_Add"
  type: "Ara2Eltwise"
  bottom: "_model_layers_2_self_attn_o_proj_MatMul_ara_inrp"
  bottom: "_model_layers_2_residue_rshp_1"
  top: "_model_layers_2_Add"
  base_type: "Eltwise"
  estimator_group: "Eltwise"
  eltwise_param {
    operation: SUM
    broadcast0: 0.0
    broadcast0: 0.0
    broadcast0: 0.0
    broadcast1: 0.0
    broadcast1: 0.0
    broadcast1: 0.0
  }
}
layer {
  name: "_model_layers_2_rshp_5_Reshape"
  type: "Ara2Reshape"
  bottom: "_model_layers_2_Add"
  top: "_model_layers_2_rshp_5_Reshape"
  base_type: "Reshape"
  estimator_group: "Reshape"
  reshape_param {
    shape {
      dim: 1
      dim: 1
      dim: 4096
      dim: 256
    }
  }
}
layer {
  name: "_model_layers_2_prm_5_PermuteNnp"
  type: "Ara2PermuteNnp"
  bottom: "_model_layers_2_rshp_5_Reshape"
  top: "_model_layers_2_prm_5_PermuteNnp"
  base_type: "PermuteNnp"
  estimator_group: "PermuteNnp"
  permute_nnp_param {
    order: 0
    order: 1
    order: 3
    order: 2
  }
}
layer {
  name: "_model_layers_2_post_attention_layernorm_Mul_1_ara_LayerNorm_0"
  type: "Ara2LayerNorm"
  bottom: "_model_layers_2_prm_5_PermuteNnp"
  top: "_model_layers_2_post_attention_layernorm_Mul_1_ara_LayerNorm_0"
  base_type: "LayerNorm"
  estimator_group: "LayerNorm"
  layer_norm_param {
    axis: 3
    eps: 1e-06
    output_mean_var: false
    uses_mean: false
  }
}
layer {
  name: "_model_layers_2_prm_6_PermuteNnp"
  type: "Ara2PermuteNnp"
  bottom: "_model_layers_2_post_attention_layernorm_Mul_1_ara_LayerNorm_0"
  top: "_model_layers_2_prm_6_PermuteNnp"
  base_type: "PermuteNnp"
  estimator_group: "PermuteNnp"
  permute_nnp_param {
    order: 0
    order: 1
    order: 3
    order: 2
  }
}
layer {
  name: "_model_layers_2_rshp_6_Reshape"
  type: "Ara2Reshape"
  bottom: "_model_layers_2_prm_6_PermuteNnp"
  top: "_model_layers_2_rshp_6_Reshape"
  base_type: "Reshape"
  estimator_group: "Reshape"
  reshape_param {
    shape {
      dim: 1
      dim: 4096
      dim: 1
      dim: 256
    }
  }
}
layer {
  name: "_model_layers_2_mlp_up_proj_MatMul_ara_inrp"
  type: "Ara2Convolution"
  bottom: "_model_layers_2_rshp_6_Reshape"
  top: "_model_layers_2_mlp_up_proj_MatMul_ara_inrp"
  base_type: "Convolution"
  estimator_group: "Convolution"
  convolution_param {
    num_output: 11008
    bias_term: false
    kernel_size: 1
    kernel_size: 1
  }
}
layer {
  name: "_model_layers_2_mlp_gate_proj_MatMul_ara_inrp"
  type: "Ara2Convolution"
  bottom: "_model_layers_2_rshp_6_Reshape"
  top: "_model_layers_2_mlp_gate_proj_MatMul_ara_inrp"
  base_type: "Convolution"
  estimator_group: "Convolution"
  convolution_param {
    num_output: 11008
    bias_term: false
    kernel_size: 1
    kernel_size: 1
  }
}
layer {
  name: "_model_layers_2_mlp_act_fn_Mul"
  type: "Ara2Swish"
  bottom: "_model_layers_2_mlp_gate_proj_MatMul_ara_inrp"
  top: "_model_layers_2_mlp_act_fn_Mul"
  base_type: "Swish"
  estimator_group: "activation"
}
layer {
  name: "_model_layers_2_mlp_Mul"
  type: "Ara2Eltwise"
  bottom: "_model_layers_2_mlp_up_proj_MatMul_ara_inrp"
  bottom: "_model_layers_2_mlp_act_fn_Mul"
  top: "_model_layers_2_mlp_Mul"
  base_type: "Eltwise"
  estimator_group: "Eltwise"
  eltwise_param {
    operation: PROD
    broadcast0: 0.0
    broadcast0: 0.0
    broadcast0: 0.0
    broadcast1: 0.0
    broadcast1: 0.0
    broadcast1: 0.0
  }
}
layer {
  name: "_model_layers_2_mlp_down_proj_MatMul_ara_inrp"
  type: "Ara2Convolution"
  bottom: "_model_layers_2_mlp_Mul"
  top: "_model_layers_2_mlp_down_proj_MatMul_ara_inrp"
  base_type: "Convolution"
  estimator_group: "Convolution"
  convolution_param {
    num_output: 4096
    bias_term: false
    kernel_size: 1
    kernel_size: 1
  }
}
layer {
  name: "_model_layers_2_Add_1"
  type: "Ara2Eltwise"
  bottom: "_model_layers_2_Add"
  bottom: "_model_layers_2_mlp_down_proj_MatMul_ara_inrp"
  top: "_model_layers_2_Add_1"
  base_type: "Eltwise"
  estimator_group: "Eltwise"
  eltwise_param {
    operation: SUM
    broadcast0: 0.0
    broadcast0: 0.0
    broadcast0: 0.0
    broadcast1: 0.0
    broadcast1: 0.0
    broadcast1: 0.0
  }
  isOutput: true
}
layer {
  name: "_model_layers_2_residue_perm_3"
  type: "Ara2Reshape"
  bottom: "_model_layers_2_Add_1"
  top: "_model_layers_2_residue_perm_3"
  base_type: "Reshape"
  estimator_group: "Reshape"
  reshape_param {
    shape {
      dim: 1
      dim: 1
      dim: 4096
      dim: 256
    }
  }
}
layer {
  name: "_model_layers_2_residue_rshp_3"
  type: "Ara2PermuteNnp"
  bottom: "_model_layers_2_residue_perm_3"
  top: "_model_layers_2_residue_rshp_3"
  base_type: "PermuteNnp"
  estimator_group: "PermuteNnp"
  permute_nnp_param {
    order: 0
    order: 1
    order: 3
    order: 2
  }
}



layer {
  name: "_model_layers_3_residue_perm_1"
  type: "Ara2PermuteNnp"
  bottom: "_model_layers_2_residue_rshp_3"
  top: "_model_layers_3_residue_perm_1"
  base_type: "PermuteNnp"
  estimator_group: "PermuteNnp"
  permute_nnp_param {
    order: 0
    order: 1
    order: 3
    order: 2
  }
}
layer {
  name: "_model_layers_3_residue_rshp_1"
  type: "Ara2Reshape"
  bottom: "_model_layers_3_residue_perm_1"
  top: "_model_layers_3_residue_rshp_1"
  base_type: "Reshape"
  estimator_group: "Reshape"
  reshape_param {
    shape {
      dim: 1
      dim: 4096
      dim: 1
      dim: 256
    }
  }
}

layer {
  name: "_model_layers_3_input_layernorm_Mul_1_ara_LayerNorm_0"
  type: "Ara2LayerNorm"
  bottom: "_model_layers_2_residue_rshp_3"
  top: "_model_layers_3_input_layernorm_Mul_1_ara_LayerNorm_0"
  base_type: "LayerNorm"
  estimator_group: "LayerNorm"
  layer_norm_param {
    axis: 3
    eps: 1e-06
    output_mean_var: false
    uses_mean: false
  }
}
layer {
  name: "_model_layers_3_residue_perm_2"
  type: "Ara2PermuteNnp"
  bottom: "_model_layers_3_input_layernorm_Mul_1_ara_LayerNorm_0"
  top: "_model_layers_3_residue_perm_2"
  base_type: "PermuteNnp"
  estimator_group: "PermuteNnp"
  permute_nnp_param {
    order: 0
    order: 1
    order: 3
    order: 2
  }
}
layer {
  name: "_model_layers_3_residue_rshp_2"
  type: "Ara2Reshape"
  bottom: "_model_layers_3_residue_perm_2"
  top: "_model_layers_3_residue_rshp_2"
  base_type: "Reshape"
  estimator_group: "Reshape"
  reshape_param {
    shape {
      dim: 1
      dim: 4096
      dim: 1
      dim: 256
    }
  }
}
layer {
  name: "_model_layers_3_self_attn_q_proj_MatMul"
  type: "Ara2Convolution"
  bottom: "_model_layers_3_residue_rshp_2"
  top: "_model_layers_3_self_attn_q_proj_MatMul"
  base_type: "Convolution"
  estimator_group: "Convolution"
  convolution_param {
    num_output: 4096
    bias_term: false
    kernel_size: 1
    kernel_size: 1
  }
}
layer {
  name: "_model_layers_3_self_attn_q_proj_Add_original_bnorm"
  type: "Ara2BatchNorm"
  bottom: "_model_layers_3_self_attn_q_proj_MatMul"
  top: "_model_layers_3_self_attn_q_proj_Add_original_bnorm"
  base_type: "BatchNorm"
  estimator_group: "BatchNorm"
  batch_norm_param {
    use_global_stats: true
    eps: 0.0
  }
}
layer {
  name: "_model_layers_3_self_attn_q_proj_Add_original"
  type: "Ara2Scale"
  bottom: "_model_layers_3_self_attn_q_proj_Add_original_bnorm"
  top: "_model_layers_3_self_attn_q_proj_Add_original"
  base_type: "Scale"
  estimator_group: "Scale"
  scale_param {
    axis: 1
    bias_term: true
  }
}
layer {
  name: "_model_layers_3_self_attn_Reshape_1"
  type: "Ara2Reshape"
  bottom: "_model_layers_3_self_attn_q_proj_Add_original"
  top: "_model_layers_3_self_attn_Reshape_1"
  base_type: "Reshape"
  estimator_group: "Reshape"
  reshape_param {
    shape {
      dim: 1
      dim: 32
      dim: 128
      dim: 256
    }
  }
}
layer {
  name: "_model_layers_3_self_attn_Add"
  type: "Ara2Eltwise"
  bottom: "_model_layers_3_self_attn_Reshape_1"
  bottom: "position_ids_embedded"
  top: "_model_layers_3_self_attn_Add"
  base_type: "Eltwise"
  estimator_group: "Eltwise"
  eltwise_param {
    operation: ROPE
    broadcast1: 0.0
    broadcast1: 1.0
    broadcast1: 0.5
    broadcast1: 0.0
  }
}
layer {
  name: "_model_layers_3_self_attn_k_proj_MatMul"
  type: "Ara2Convolution"
  bottom: "_model_layers_3_residue_rshp_2"
  top: "_model_layers_3_self_attn_k_proj_MatMul"
  base_type: "Convolution"
  estimator_group: "Convolution"
  convolution_param {
    num_output: 4096
    bias_term: false
    kernel_size: 1
    kernel_size: 1
  }
}
layer {
  name: "_model_layers_3_self_attn_k_proj_Add_original_bnorm"
  type: "Ara2BatchNorm"
  bottom: "_model_layers_3_self_attn_k_proj_MatMul"
  top: "_model_layers_3_self_attn_k_proj_Add_original_bnorm"
  base_type: "BatchNorm"
  estimator_group: "BatchNorm"
  batch_norm_param {
    use_global_stats: true
    eps: 0.0
  }
}
layer {
  name: "_model_layers_3_self_attn_k_proj_Add_original"
  type: "Ara2Scale"
  bottom: "_model_layers_3_self_attn_k_proj_Add_original_bnorm"
  top: "_model_layers_3_self_attn_k_proj_Add_original"
  base_type: "Scale"
  estimator_group: "Scale"
  scale_param {
    axis: 1
    bias_term: true
  }
}
layer {
  name: "_model_layers_3_self_attn_Reshape_3"
  type: "Ara2Reshape"
  bottom: "_model_layers_3_self_attn_k_proj_Add_original"
  top: "_model_layers_3_self_attn_Reshape_3"
  base_type: "Reshape"
  estimator_group: "Reshape"
  reshape_param {
    shape {
      dim: 1
      dim: 32
      dim: 128
      dim: 256
    }
  }
}
layer {
  name: "_model_layers_3_self_attn_Add_1"
  type: "Ara2Eltwise"
  bottom: "_model_layers_3_self_attn_Reshape_3"
  bottom: "position_ids_embedded"
  top: "_model_layers_3_self_attn_Add_1"
  base_type: "Eltwise"
  estimator_group: "Eltwise"
  eltwise_param {
    operation: ROPE
    broadcast1: 0.0
    broadcast1: 1.0
    broadcast1: 0.5
    broadcast1: 0.0
  }
}
layer {
  name: "_model_layers_3_self_attn_1_Reshape_1"
  type: "Ara2Reshape"
  bottom: "_model_layers_3_self_attn_Add_1"
  top: "_model_layers_3_self_attn_1_Reshape_1"
  base_type: "Reshape"
  estimator_group: "Reshape"
  reshape_param {
    shape {
      dim: 1
      dim: 1
      dim: 4096
      dim: 256
    }
  }
}
layer {
  name: "_model_layers_3_k_cache"
  type: "Ara2Permute"
  bottom: "_model_layers_3_self_attn_1_Reshape_1"
  top: "_model_layers_3_k_cache"
  base_type: "Permute"
  estimator_group: "Permute"
  permute_param {
    order: 0
    order: 1
    order: 3
    order: 2
  }
  isKeyOutput: 3
  isOutput: true
}
layer {
  name: "_model_layers_3_self_attn_v_proj_MatMul"
  type: "Ara2Convolution"
  bottom: "_model_layers_3_residue_rshp_2"
  top: "_model_layers_3_self_attn_v_proj_MatMul"
  base_type: "Convolution"
  estimator_group: "Convolution"
  convolution_param {
    num_output: 4096
    bias_term: false
    kernel_size: 1
    kernel_size: 1
  }
}
layer {
  name: "_model_layers_3_self_attn_v_proj_Add_original_bnorm"
  type: "Ara2BatchNorm"
  bottom: "_model_layers_3_self_attn_v_proj_MatMul"
  top: "_model_layers_3_self_attn_v_proj_Add_original_bnorm"
  base_type: "BatchNorm"
  estimator_group: "BatchNorm"
  batch_norm_param {
    use_global_stats: true
    eps: 0.0
  }
}
layer {
  name: "_model_layers_3_self_attn_v_proj_Add_original"
  type: "Ara2Scale"
  bottom: "_model_layers_3_self_attn_v_proj_Add_original_bnorm"
  top: "_model_layers_3_self_attn_v_proj_Add_original"
  base_type: "Scale"
  estimator_group: "Scale"
  scale_param {
    axis: 1
    bias_term: true
  }
}
layer {
  name: "_model_layers_3_self_attn_2_Reshape_1"
  type: "Ara2Reshape"
  bottom: "_model_layers_3_self_attn_v_proj_Add_original"
  top: "_model_layers_3_self_attn_2_Reshape_1"
  base_type: "Reshape"
  estimator_group: "Reshape"
  reshape_param {
    shape {
      dim: 1
      dim: 1
      dim: 4096
      dim: 256
    }
  }
}
layer {
  name: "_model_layers_3_v_cache"
  type: "Ara2Permute"
  bottom: "_model_layers_3_self_attn_2_Reshape_1"
  top: "_model_layers_3_v_cache"
  base_type: "Permute"
  estimator_group: "Permute"
  permute_param {
    order: 0
    order: 1
    order: 3
    order: 2
  }
  isValueOutput: 3
  isOutput: true
}
layer {
  name: "_model_layers_3_self_attn_Reshape_2"
  type: "Ara2Reshape"
  bottom: "_model_layers_3_self_attn_v_proj_Add_original"
  top: "_model_layers_3_self_attn_Reshape_2"
  base_type: "Reshape"
  estimator_group: "Reshape"
  reshape_param {
    shape {
      dim: 1
      dim: 32
      dim: 128
      dim: 256
    }
  }
}
layer {
  name: "_model_layers_3_self_attn_Transpose_2"
  type: "Ara2PermuteNnp"
  bottom: "_model_layers_3_self_attn_Reshape_2"
  top: "_model_layers_3_self_attn_Transpose_2"
  base_type: "PermuteNnp"
  estimator_group: "PermuteNnp"
  permute_nnp_param {
    order: 0
    order: 1
    order: 3
    order: 2
  }
}
layer {
  name: "_model_layers_3_self_attn_MatMul"
  type: "Ara2BatchDot"
  bottom: "_model_layers_3_self_attn_Add_1"
  bottom: "_model_layers_3_self_attn_Add"
  top: "_model_layers_3_self_attn_MatMul"
  base_type: "BatchDot"
  estimator_group: "BatchDot"
  batch_dot_param {
    transpose_a: 1
    transpose_b: 0
    multiplier: 0.08838834916
  }
}
layer {
  name: "_model_layers_3_self_attn_Softmax"
  type: "Ara2AttentionSoftmax"
  bottom: "_model_layers_3_self_attn_MatMul"
  bottom: "valid_till"
  top: "_model_layers_3_self_attn_Softmax"
  base_type: "AttentionSoftmax"
  estimator_group: "AttentionSoftmax"
  attentionsoftmax_param {
    axis: 2
  }
}
layer {
  name: "_model_layers_3_self_attn_MatMul_1"
  type: "Ara2BatchDot"
  bottom: "_model_layers_3_self_attn_Transpose_2"
  bottom: "_model_layers_3_self_attn_Softmax"
  top: "_model_layers_3_self_attn_MatMul_1"
  base_type: "BatchDot"
  estimator_group: "BatchDot"
  batch_dot_param {
    transpose_a: 1
    transpose_b: 0
  }
}
layer {
  name: "_model_layers_3_self_attn_o_proj_MatMul_ara_reshape_0"
  type: "Ara2Reshape"
  bottom: "_model_layers_3_self_attn_MatMul_1"
  top: "_model_layers_3_self_attn_o_proj_MatMul_ara_reshape_0"
  base_type: "Reshape"
  estimator_group: "Reshape"
  reshape_param {
    shape {
      dim: 1
      dim: 4096
      dim: 1
      dim: 256
    }
  }
}
layer {
  name: "_model_layers_3_self_attn_o_proj_MatMul_ara_inrp"
  type: "Ara2Convolution"
  bottom: "_model_layers_3_self_attn_o_proj_MatMul_ara_reshape_0"
  top: "_model_layers_3_self_attn_o_proj_MatMul_ara_inrp"
  base_type: "Convolution"
  estimator_group: "Convolution"
  convolution_param {
    num_output: 4096
    bias_term: false
    kernel_size: 1
    kernel_size: 1
  }
}
layer {
  name: "_model_layers_3_Add"
  type: "Ara2Eltwise"
  bottom: "_model_layers_3_self_attn_o_proj_MatMul_ara_inrp"
  bottom: "_model_layers_3_residue_rshp_1"
  top: "_model_layers_3_Add"
  base_type: "Eltwise"
  estimator_group: "Eltwise"
  eltwise_param {
    operation: SUM
    broadcast0: 0.0
    broadcast0: 0.0
    broadcast0: 0.0
    broadcast1: 0.0
    broadcast1: 0.0
    broadcast1: 0.0
  }
}
layer {
  name: "_model_layers_3_rshp_5_Reshape"
  type: "Ara2Reshape"
  bottom: "_model_layers_3_Add"
  top: "_model_layers_3_rshp_5_Reshape"
  base_type: "Reshape"
  estimator_group: "Reshape"
  reshape_param {
    shape {
      dim: 1
      dim: 1
      dim: 4096
      dim: 256
    }
  }
}
layer {
  name: "_model_layers_3_prm_5_PermuteNnp"
  type: "Ara2PermuteNnp"
  bottom: "_model_layers_3_rshp_5_Reshape"
  top: "_model_layers_3_prm_5_PermuteNnp"
  base_type: "PermuteNnp"
  estimator_group: "PermuteNnp"
  permute_nnp_param {
    order: 0
    order: 1
    order: 3
    order: 2
  }
}
layer {
  name: "_model_layers_3_post_attention_layernorm_Mul_1_ara_LayerNorm_0"
  type: "Ara2LayerNorm"
  bottom: "_model_layers_3_prm_5_PermuteNnp"
  top: "_model_layers_3_post_attention_layernorm_Mul_1_ara_LayerNorm_0"
  base_type: "LayerNorm"
  estimator_group: "LayerNorm"
  layer_norm_param {
    axis: 3
    eps: 1e-06
    output_mean_var: false
    uses_mean: false
  }
}
layer {
  name: "_model_layers_3_prm_6_PermuteNnp"
  type: "Ara2PermuteNnp"
  bottom: "_model_layers_3_post_attention_layernorm_Mul_1_ara_LayerNorm_0"
  top: "_model_layers_3_prm_6_PermuteNnp"
  base_type: "PermuteNnp"
  estimator_group: "PermuteNnp"
  permute_nnp_param {
    order: 0
    order: 1
    order: 3
    order: 2
  }
}
layer {
  name: "_model_layers_3_rshp_6_Reshape"
  type: "Ara2Reshape"
  bottom: "_model_layers_3_prm_6_PermuteNnp"
  top: "_model_layers_3_rshp_6_Reshape"
  base_type: "Reshape"
  estimator_group: "Reshape"
  reshape_param {
    shape {
      dim: 1
      dim: 4096
      dim: 1
      dim: 256
    }
  }
}
layer {
  name: "_model_layers_3_mlp_up_proj_MatMul_ara_inrp"
  type: "Ara2Convolution"
  bottom: "_model_layers_3_rshp_6_Reshape"
  top: "_model_layers_3_mlp_up_proj_MatMul_ara_inrp"
  base_type: "Convolution"
  estimator_group: "Convolution"
  convolution_param {
    num_output: 11008
    bias_term: false
    kernel_size: 1
    kernel_size: 1
  }
}
layer {
  name: "_model_layers_3_mlp_gate_proj_MatMul_ara_inrp"
  type: "Ara2Convolution"
  bottom: "_model_layers_3_rshp_6_Reshape"
  top: "_model_layers_3_mlp_gate_proj_MatMul_ara_inrp"
  base_type: "Convolution"
  estimator_group: "Convolution"
  convolution_param {
    num_output: 11008
    bias_term: false
    kernel_size: 1
    kernel_size: 1
  }
}
layer {
  name: "_model_layers_3_mlp_act_fn_Mul"
  type: "Ara2Swish"
  bottom: "_model_layers_3_mlp_gate_proj_MatMul_ara_inrp"
  top: "_model_layers_3_mlp_act_fn_Mul"
  base_type: "Swish"
  estimator_group: "activation"
}
layer {
  name: "_model_layers_3_mlp_Mul"
  type: "Ara2Eltwise"
  bottom: "_model_layers_3_mlp_up_proj_MatMul_ara_inrp"
  bottom: "_model_layers_3_mlp_act_fn_Mul"
  top: "_model_layers_3_mlp_Mul"
  base_type: "Eltwise"
  estimator_group: "Eltwise"
  eltwise_param {
    operation: PROD
    broadcast0: 0.0
    broadcast0: 0.0
    broadcast0: 0.0
    broadcast1: 0.0
    broadcast1: 0.0
    broadcast1: 0.0
  }
}
layer {
  name: "_model_layers_3_mlp_down_proj_MatMul_ara_inrp"
  type: "Ara2Convolution"
  bottom: "_model_layers_3_mlp_Mul"
  top: "_model_layers_3_mlp_down_proj_MatMul_ara_inrp"
  base_type: "Convolution"
  estimator_group: "Convolution"
  convolution_param {
    num_output: 4096
    bias_term: false
    kernel_size: 1
    kernel_size: 1
  }
}
layer {
  name: "_model_layers_3_Add_1"
  type: "Ara2Eltwise"
  bottom: "_model_layers_3_Add"
  bottom: "_model_layers_3_mlp_down_proj_MatMul_ara_inrp"
  top: "_model_layers_3_Add_1"
  base_type: "Eltwise"
  estimator_group: "Eltwise"
  eltwise_param {
    operation: SUM
    broadcast0: 0.0
    broadcast0: 0.0
    broadcast0: 0.0
    broadcast1: 0.0
    broadcast1: 0.0
    broadcast1: 0.0
  }
  isOutput: true
}
layer {
  name: "_model_layers_3_residue_perm_3"
  type: "Ara2Reshape"
  bottom: "_model_layers_3_Add_1"
  top: "_model_layers_3_residue_perm_3"
  base_type: "Reshape"
  estimator_group: "Reshape"
  reshape_param {
    shape {
      dim: 1
      dim: 1
      dim: 4096
      dim: 256
    }
  }
}
layer {
  name: "_model_layers_3_residue_rshp_3"
  type: "Ara2PermuteNnp"
  bottom: "_model_layers_3_residue_perm_3"
  top: "_model_layers_3_residue_rshp_3"
  base_type: "PermuteNnp"
  estimator_group: "PermuteNnp"
  permute_nnp_param {
    order: 0
    order: 1
    order: 3
    order: 2
  }
}



layer {
  name: "_model_layers_4_residue_perm_1"
  type: "Ara2PermuteNnp"
  bottom: "_model_layers_3_residue_rshp_3"
  top: "_model_layers_4_residue_perm_1"
  base_type: "PermuteNnp"
  estimator_group: "PermuteNnp"
  permute_nnp_param {
    order: 0
    order: 1
    order: 3
    order: 2
  }
}
layer {
  name: "_model_layers_4_residue_rshp_1"
  type: "Ara2Reshape"
  bottom: "_model_layers_4_residue_perm_1"
  top: "_model_layers_4_residue_rshp_1"
  base_type: "Reshape"
  estimator_group: "Reshape"
  reshape_param {
    shape {
      dim: 1
      dim: 4096
      dim: 1
      dim: 256
    }
  }
}

layer {
  name: "_model_layers_4_input_layernorm_Mul_1_ara_LayerNorm_0"
  type: "Ara2LayerNorm"
  bottom: "_model_layers_3_residue_rshp_3"
  top: "_model_layers_4_input_layernorm_Mul_1_ara_LayerNorm_0"
  base_type: "LayerNorm"
  estimator_group: "LayerNorm"
  layer_norm_param {
    axis: 3
    eps: 1e-06
    output_mean_var: false
    uses_mean: false
  }
}
layer {
  name: "_model_layers_4_residue_perm_2"
  type: "Ara2PermuteNnp"
  bottom: "_model_layers_4_input_layernorm_Mul_1_ara_LayerNorm_0"
  top: "_model_layers_4_residue_perm_2"
  base_type: "PermuteNnp"
  estimator_group: "PermuteNnp"
  permute_nnp_param {
    order: 0
    order: 1
    order: 3
    order: 2
  }
}
layer {
  name: "_model_layers_4_residue_rshp_2"
  type: "Ara2Reshape"
  bottom: "_model_layers_4_residue_perm_2"
  top: "_model_layers_4_residue_rshp_2"
  base_type: "Reshape"
  estimator_group: "Reshape"
  reshape_param {
    shape {
      dim: 1
      dim: 4096
      dim: 1
      dim: 256
    }
  }
}
layer {
  name: "_model_layers_4_self_attn_q_proj_MatMul"
  type: "Ara2Convolution"
  bottom: "_model_layers_4_residue_rshp_2"
  top: "_model_layers_4_self_attn_q_proj_MatMul"
  base_type: "Convolution"
  estimator_group: "Convolution"
  convolution_param {
    num_output: 4096
    bias_term: false
    kernel_size: 1
    kernel_size: 1
  }
}
layer {
  name: "_model_layers_4_self_attn_q_proj_Add_original_bnorm"
  type: "Ara2BatchNorm"
  bottom: "_model_layers_4_self_attn_q_proj_MatMul"
  top: "_model_layers_4_self_attn_q_proj_Add_original_bnorm"
  base_type: "BatchNorm"
  estimator_group: "BatchNorm"
  batch_norm_param {
    use_global_stats: true
    eps: 0.0
  }
}
layer {
  name: "_model_layers_4_self_attn_q_proj_Add_original"
  type: "Ara2Scale"
  bottom: "_model_layers_4_self_attn_q_proj_Add_original_bnorm"
  top: "_model_layers_4_self_attn_q_proj_Add_original"
  base_type: "Scale"
  estimator_group: "Scale"
  scale_param {
    axis: 1
    bias_term: true
  }
}
layer {
  name: "_model_layers_4_self_attn_Reshape_1"
  type: "Ara2Reshape"
  bottom: "_model_layers_4_self_attn_q_proj_Add_original"
  top: "_model_layers_4_self_attn_Reshape_1"
  base_type: "Reshape"
  estimator_group: "Reshape"
  reshape_param {
    shape {
      dim: 1
      dim: 32
      dim: 128
      dim: 256
    }
  }
}
layer {
  name: "_model_layers_4_self_attn_Add"
  type: "Ara2Eltwise"
  bottom: "_model_layers_4_self_attn_Reshape_1"
  bottom: "position_ids_embedded"
  top: "_model_layers_4_self_attn_Add"
  base_type: "Eltwise"
  estimator_group: "Eltwise"
  eltwise_param {
    operation: ROPE
    broadcast1: 0.0
    broadcast1: 1.0
    broadcast1: 0.5
    broadcast1: 0.0
  }
}
layer {
  name: "_model_layers_4_self_attn_k_proj_MatMul"
  type: "Ara2Convolution"
  bottom: "_model_layers_4_residue_rshp_2"
  top: "_model_layers_4_self_attn_k_proj_MatMul"
  base_type: "Convolution"
  estimator_group: "Convolution"
  convolution_param {
    num_output: 4096
    bias_term: false
    kernel_size: 1
    kernel_size: 1
  }
}
layer {
  name: "_model_layers_4_self_attn_k_proj_Add_original_bnorm"
  type: "Ara2BatchNorm"
  bottom: "_model_layers_4_self_attn_k_proj_MatMul"
  top: "_model_layers_4_self_attn_k_proj_Add_original_bnorm"
  base_type: "BatchNorm"
  estimator_group: "BatchNorm"
  batch_norm_param {
    use_global_stats: true
    eps: 0.0
  }
}
layer {
  name: "_model_layers_4_self_attn_k_proj_Add_original"
  type: "Ara2Scale"
  bottom: "_model_layers_4_self_attn_k_proj_Add_original_bnorm"
  top: "_model_layers_4_self_attn_k_proj_Add_original"
  base_type: "Scale"
  estimator_group: "Scale"
  scale_param {
    axis: 1
    bias_term: true
  }
}
layer {
  name: "_model_layers_4_self_attn_Reshape_3"
  type: "Ara2Reshape"
  bottom: "_model_layers_4_self_attn_k_proj_Add_original"
  top: "_model_layers_4_self_attn_Reshape_3"
  base_type: "Reshape"
  estimator_group: "Reshape"
  reshape_param {
    shape {
      dim: 1
      dim: 32
      dim: 128
      dim: 256
    }
  }
}
layer {
  name: "_model_layers_4_self_attn_Add_1"
  type: "Ara2Eltwise"
  bottom: "_model_layers_4_self_attn_Reshape_3"
  bottom: "position_ids_embedded"
  top: "_model_layers_4_self_attn_Add_1"
  base_type: "Eltwise"
  estimator_group: "Eltwise"
  eltwise_param {
    operation: ROPE
    broadcast1: 0.0
    broadcast1: 1.0
    broadcast1: 0.5
    broadcast1: 0.0
  }
}
layer {
  name: "_model_layers_4_self_attn_1_Reshape_1"
  type: "Ara2Reshape"
  bottom: "_model_layers_4_self_attn_Add_1"
  top: "_model_layers_4_self_attn_1_Reshape_1"
  base_type: "Reshape"
  estimator_group: "Reshape"
  reshape_param {
    shape {
      dim: 1
      dim: 1
      dim: 4096
      dim: 256
    }
  }
}
layer {
  name: "_model_layers_4_k_cache"
  type: "Ara2Permute"
  bottom: "_model_layers_4_self_attn_1_Reshape_1"
  top: "_model_layers_4_k_cache"
  base_type: "Permute"
  estimator_group: "Permute"
  permute_param {
    order: 0
    order: 1
    order: 3
    order: 2
  }
  isKeyOutput: 4
  isOutput: true
}
layer {
  name: "_model_layers_4_self_attn_v_proj_MatMul"
  type: "Ara2Convolution"
  bottom: "_model_layers_4_residue_rshp_2"
  top: "_model_layers_4_self_attn_v_proj_MatMul"
  base_type: "Convolution"
  estimator_group: "Convolution"
  convolution_param {
    num_output: 4096
    bias_term: false
    kernel_size: 1
    kernel_size: 1
  }
}
layer {
  name: "_model_layers_4_self_attn_v_proj_Add_original_bnorm"
  type: "Ara2BatchNorm"
  bottom: "_model_layers_4_self_attn_v_proj_MatMul"
  top: "_model_layers_4_self_attn_v_proj_Add_original_bnorm"
  base_type: "BatchNorm"
  estimator_group: "BatchNorm"
  batch_norm_param {
    use_global_stats: true
    eps: 0.0
  }
}
layer {
  name: "_model_layers_4_self_attn_v_proj_Add_original"
  type: "Ara2Scale"
  bottom: "_model_layers_4_self_attn_v_proj_Add_original_bnorm"
  top: "_model_layers_4_self_attn_v_proj_Add_original"
  base_type: "Scale"
  estimator_group: "Scale"
  scale_param {
    axis: 1
    bias_term: true
  }
}
layer {
  name: "_model_layers_4_self_attn_2_Reshape_1"
  type: "Ara2Reshape"
  bottom: "_model_layers_4_self_attn_v_proj_Add_original"
  top: "_model_layers_4_self_attn_2_Reshape_1"
  base_type: "Reshape"
  estimator_group: "Reshape"
  reshape_param {
    shape {
      dim: 1
      dim: 1
      dim: 4096
      dim: 256
    }
  }
}
layer {
  name: "_model_layers_4_v_cache"
  type: "Ara2Permute"
  bottom: "_model_layers_4_self_attn_2_Reshape_1"
  top: "_model_layers_4_v_cache"
  base_type: "Permute"
  estimator_group: "Permute"
  permute_param {
    order: 0
    order: 1
    order: 3
    order: 2
  }
  isValueOutput: 4
  isOutput: true
}
layer {
  name: "_model_layers_4_self_attn_Reshape_2"
  type: "Ara2Reshape"
  bottom: "_model_layers_4_self_attn_v_proj_Add_original"
  top: "_model_layers_4_self_attn_Reshape_2"
  base_type: "Reshape"
  estimator_group: "Reshape"
  reshape_param {
    shape {
      dim: 1
      dim: 32
      dim: 128
      dim: 256
    }
  }
}
layer {
  name: "_model_layers_4_self_attn_Transpose_2"
  type: "Ara2PermuteNnp"
  bottom: "_model_layers_4_self_attn_Reshape_2"
  top: "_model_layers_4_self_attn_Transpose_2"
  base_type: "PermuteNnp"
  estimator_group: "PermuteNnp"
  permute_nnp_param {
    order: 0
    order: 1
    order: 3
    order: 2
  }
}
layer {
  name: "_model_layers_4_self_attn_MatMul"
  type: "Ara2BatchDot"
  bottom: "_model_layers_4_self_attn_Add_1"
  bottom: "_model_layers_4_self_attn_Add"
  top: "_model_layers_4_self_attn_MatMul"
  base_type: "BatchDot"
  estimator_group: "BatchDot"
  batch_dot_param {
    transpose_a: 1
    transpose_b: 0
    multiplier: 0.08838834916
  }
}
layer {
  name: "_model_layers_4_self_attn_Softmax"
  type: "Ara2AttentionSoftmax"
  bottom: "_model_layers_4_self_attn_MatMul"
  bottom: "valid_till"
  top: "_model_layers_4_self_attn_Softmax"
  base_type: "AttentionSoftmax"
  estimator_group: "AttentionSoftmax"
  attentionsoftmax_param {
    axis: 2
  }
}
layer {
  name: "_model_layers_4_self_attn_MatMul_1"
  type: "Ara2BatchDot"
  bottom: "_model_layers_4_self_attn_Transpose_2"
  bottom: "_model_layers_4_self_attn_Softmax"
  top: "_model_layers_4_self_attn_MatMul_1"
  base_type: "BatchDot"
  estimator_group: "BatchDot"
  batch_dot_param {
    transpose_a: 1
    transpose_b: 0
  }
}
layer {
  name: "_model_layers_4_self_attn_o_proj_MatMul_ara_reshape_0"
  type: "Ara2Reshape"
  bottom: "_model_layers_4_self_attn_MatMul_1"
  top: "_model_layers_4_self_attn_o_proj_MatMul_ara_reshape_0"
  base_type: "Reshape"
  estimator_group: "Reshape"
  reshape_param {
    shape {
      dim: 1
      dim: 4096
      dim: 1
      dim: 256
    }
  }
}
layer {
  name: "_model_layers_4_self_attn_o_proj_MatMul_ara_inrp"
  type: "Ara2Convolution"
  bottom: "_model_layers_4_self_attn_o_proj_MatMul_ara_reshape_0"
  top: "_model_layers_4_self_attn_o_proj_MatMul_ara_inrp"
  base_type: "Convolution"
  estimator_group: "Convolution"
  convolution_param {
    num_output: 4096
    bias_term: false
    kernel_size: 1
    kernel_size: 1
  }
}
layer {
  name: "_model_layers_4_Add"
  type: "Ara2Eltwise"
  bottom: "_model_layers_4_self_attn_o_proj_MatMul_ara_inrp"
  bottom: "_model_layers_4_residue_rshp_1"
  top: "_model_layers_4_Add"
  base_type: "Eltwise"
  estimator_group: "Eltwise"
  eltwise_param {
    operation: SUM
    broadcast0: 0.0
    broadcast0: 0.0
    broadcast0: 0.0
    broadcast1: 0.0
    broadcast1: 0.0
    broadcast1: 0.0
  }
}
layer {
  name: "_model_layers_4_rshp_5_Reshape"
  type: "Ara2Reshape"
  bottom: "_model_layers_4_Add"
  top: "_model_layers_4_rshp_5_Reshape"
  base_type: "Reshape"
  estimator_group: "Reshape"
  reshape_param {
    shape {
      dim: 1
      dim: 1
      dim: 4096
      dim: 256
    }
  }
}
layer {
  name: "_model_layers_4_prm_5_PermuteNnp"
  type: "Ara2PermuteNnp"
  bottom: "_model_layers_4_rshp_5_Reshape"
  top: "_model_layers_4_prm_5_PermuteNnp"
  base_type: "PermuteNnp"
  estimator_group: "PermuteNnp"
  permute_nnp_param {
    order: 0
    order: 1
    order: 3
    order: 2
  }
}
layer {
  name: "_model_layers_4_post_attention_layernorm_Mul_1_ara_LayerNorm_0"
  type: "Ara2LayerNorm"
  bottom: "_model_layers_4_prm_5_PermuteNnp"
  top: "_model_layers_4_post_attention_layernorm_Mul_1_ara_LayerNorm_0"
  base_type: "LayerNorm"
  estimator_group: "LayerNorm"
  layer_norm_param {
    axis: 3
    eps: 1e-06
    output_mean_var: false
    uses_mean: false
  }
}
layer {
  name: "_model_layers_4_prm_6_PermuteNnp"
  type: "Ara2PermuteNnp"
  bottom: "_model_layers_4_post_attention_layernorm_Mul_1_ara_LayerNorm_0"
  top: "_model_layers_4_prm_6_PermuteNnp"
  base_type: "PermuteNnp"
  estimator_group: "PermuteNnp"
  permute_nnp_param {
    order: 0
    order: 1
    order: 3
    order: 2
  }
}
layer {
  name: "_model_layers_4_rshp_6_Reshape"
  type: "Ara2Reshape"
  bottom: "_model_layers_4_prm_6_PermuteNnp"
  top: "_model_layers_4_rshp_6_Reshape"
  base_type: "Reshape"
  estimator_group: "Reshape"
  reshape_param {
    shape {
      dim: 1
      dim: 4096
      dim: 1
      dim: 256
    }
  }
}
layer {
  name: "_model_layers_4_mlp_up_proj_MatMul_ara_inrp"
  type: "Ara2Convolution"
  bottom: "_model_layers_4_rshp_6_Reshape"
  top: "_model_layers_4_mlp_up_proj_MatMul_ara_inrp"
  base_type: "Convolution"
  estimator_group: "Convolution"
  convolution_param {
    num_output: 11008
    bias_term: false
    kernel_size: 1
    kernel_size: 1
  }
}
layer {
  name: "_model_layers_4_mlp_gate_proj_MatMul_ara_inrp"
  type: "Ara2Convolution"
  bottom: "_model_layers_4_rshp_6_Reshape"
  top: "_model_layers_4_mlp_gate_proj_MatMul_ara_inrp"
  base_type: "Convolution"
  estimator_group: "Convolution"
  convolution_param {
    num_output: 11008
    bias_term: false
    kernel_size: 1
    kernel_size: 1
  }
}
layer {
  name: "_model_layers_4_mlp_act_fn_Mul"
  type: "Ara2Swish"
  bottom: "_model_layers_4_mlp_gate_proj_MatMul_ara_inrp"
  top: "_model_layers_4_mlp_act_fn_Mul"
  base_type: "Swish"
  estimator_group: "activation"
}
layer {
  name: "_model_layers_4_mlp_Mul"
  type: "Ara2Eltwise"
  bottom: "_model_layers_4_mlp_up_proj_MatMul_ara_inrp"
  bottom: "_model_layers_4_mlp_act_fn_Mul"
  top: "_model_layers_4_mlp_Mul"
  base_type: "Eltwise"
  estimator_group: "Eltwise"
  eltwise_param {
    operation: PROD
    broadcast0: 0.0
    broadcast0: 0.0
    broadcast0: 0.0
    broadcast1: 0.0
    broadcast1: 0.0
    broadcast1: 0.0
  }
}
layer {
  name: "_model_layers_4_mlp_down_proj_MatMul_ara_inrp"
  type: "Ara2Convolution"
  bottom: "_model_layers_4_mlp_Mul"
  top: "_model_layers_4_mlp_down_proj_MatMul_ara_inrp"
  base_type: "Convolution"
  estimator_group: "Convolution"
  convolution_param {
    num_output: 4096
    bias_term: false
    kernel_size: 1
    kernel_size: 1
  }
}
layer {
  name: "_model_layers_4_Add_1"
  type: "Ara2Eltwise"
  bottom: "_model_layers_4_Add"
  bottom: "_model_layers_4_mlp_down_proj_MatMul_ara_inrp"
  top: "_model_layers_4_Add_1"
  base_type: "Eltwise"
  estimator_group: "Eltwise"
  eltwise_param {
    operation: SUM
    broadcast0: 0.0
    broadcast0: 0.0
    broadcast0: 0.0
    broadcast1: 0.0
    broadcast1: 0.0
    broadcast1: 0.0
  }
  isOutput: true
}
layer {
  name: "_model_layers_4_residue_perm_3"
  type: "Ara2Reshape"
  bottom: "_model_layers_4_Add_1"
  top: "_model_layers_4_residue_perm_3"
  base_type: "Reshape"
  estimator_group: "Reshape"
  reshape_param {
    shape {
      dim: 1
      dim: 1
      dim: 4096
      dim: 256
    }
  }
}
layer {
  name: "_model_layers_4_residue_rshp_3"
  type: "Ara2PermuteNnp"
  bottom: "_model_layers_4_residue_perm_3"
  top: "_model_layers_4_residue_rshp_3"
  base_type: "PermuteNnp"
  estimator_group: "PermuteNnp"
  permute_nnp_param {
    order: 0
    order: 1
    order: 3
    order: 2
  }
}



layer {
  name: "_model_layers_5_residue_perm_1"
  type: "Ara2PermuteNnp"
  bottom: "_model_layers_4_residue_rshp_3"
  top: "_model_layers_5_residue_perm_1"
  base_type: "PermuteNnp"
  estimator_group: "PermuteNnp"
  permute_nnp_param {
    order: 0
    order: 1
    order: 3
    order: 2
  }
}
layer {
  name: "_model_layers_5_residue_rshp_1"
  type: "Ara2Reshape"
  bottom: "_model_layers_5_residue_perm_1"
  top: "_model_layers_5_residue_rshp_1"
  base_type: "Reshape"
  estimator_group: "Reshape"
  reshape_param {
    shape {
      dim: 1
      dim: 4096
      dim: 1
      dim: 256
    }
  }
}

layer {
  name: "_model_layers_5_input_layernorm_Mul_1_ara_LayerNorm_0"
  type: "Ara2LayerNorm"
  bottom: "_model_layers_4_residue_rshp_3"
  top: "_model_layers_5_input_layernorm_Mul_1_ara_LayerNorm_0"
  base_type: "LayerNorm"
  estimator_group: "LayerNorm"
  layer_norm_param {
    axis: 3
    eps: 1e-06
    output_mean_var: false
    uses_mean: false
  }
}
layer {
  name: "_model_layers_5_residue_perm_2"
  type: "Ara2PermuteNnp"
  bottom: "_model_layers_5_input_layernorm_Mul_1_ara_LayerNorm_0"
  top: "_model_layers_5_residue_perm_2"
  base_type: "PermuteNnp"
  estimator_group: "PermuteNnp"
  permute_nnp_param {
    order: 0
    order: 1
    order: 3
    order: 2
  }
}
layer {
  name: "_model_layers_5_residue_rshp_2"
  type: "Ara2Reshape"
  bottom: "_model_layers_5_residue_perm_2"
  top: "_model_layers_5_residue_rshp_2"
  base_type: "Reshape"
  estimator_group: "Reshape"
  reshape_param {
    shape {
      dim: 1
      dim: 4096
      dim: 1
      dim: 256
    }
  }
}
layer {
  name: "_model_layers_5_self_attn_q_proj_MatMul"
  type: "Ara2Convolution"
  bottom: "_model_layers_5_residue_rshp_2"
  top: "_model_layers_5_self_attn_q_proj_MatMul"
  base_type: "Convolution"
  estimator_group: "Convolution"
  convolution_param {
    num_output: 4096
    bias_term: false
    kernel_size: 1
    kernel_size: 1
  }
}
layer {
  name: "_model_layers_5_self_attn_q_proj_Add_original_bnorm"
  type: "Ara2BatchNorm"
  bottom: "_model_layers_5_self_attn_q_proj_MatMul"
  top: "_model_layers_5_self_attn_q_proj_Add_original_bnorm"
  base_type: "BatchNorm"
  estimator_group: "BatchNorm"
  batch_norm_param {
    use_global_stats: true
    eps: 0.0
  }
}
layer {
  name: "_model_layers_5_self_attn_q_proj_Add_original"
  type: "Ara2Scale"
  bottom: "_model_layers_5_self_attn_q_proj_Add_original_bnorm"
  top: "_model_layers_5_self_attn_q_proj_Add_original"
  base_type: "Scale"
  estimator_group: "Scale"
  scale_param {
    axis: 1
    bias_term: true
  }
}
layer {
  name: "_model_layers_5_self_attn_Reshape_1"
  type: "Ara2Reshape"
  bottom: "_model_layers_5_self_attn_q_proj_Add_original"
  top: "_model_layers_5_self_attn_Reshape_1"
  base_type: "Reshape"
  estimator_group: "Reshape"
  reshape_param {
    shape {
      dim: 1
      dim: 32
      dim: 128
      dim: 256
    }
  }
}
layer {
  name: "_model_layers_5_self_attn_Add"
  type: "Ara2Eltwise"
  bottom: "_model_layers_5_self_attn_Reshape_1"
  bottom: "position_ids_embedded"
  top: "_model_layers_5_self_attn_Add"
  base_type: "Eltwise"
  estimator_group: "Eltwise"
  eltwise_param {
    operation: ROPE
    broadcast1: 0.0
    broadcast1: 1.0
    broadcast1: 0.5
    broadcast1: 0.0
  }
}
layer {
  name: "_model_layers_5_self_attn_k_proj_MatMul"
  type: "Ara2Convolution"
  bottom: "_model_layers_5_residue_rshp_2"
  top: "_model_layers_5_self_attn_k_proj_MatMul"
  base_type: "Convolution"
  estimator_group: "Convolution"
  convolution_param {
    num_output: 4096
    bias_term: false
    kernel_size: 1
    kernel_size: 1
  }
}
layer {
  name: "_model_layers_5_self_attn_k_proj_Add_original_bnorm"
  type: "Ara2BatchNorm"
  bottom: "_model_layers_5_self_attn_k_proj_MatMul"
  top: "_model_layers_5_self_attn_k_proj_Add_original_bnorm"
  base_type: "BatchNorm"
  estimator_group: "BatchNorm"
  batch_norm_param {
    use_global_stats: true
    eps: 0.0
  }
}
layer {
  name: "_model_layers_5_self_attn_k_proj_Add_original"
  type: "Ara2Scale"
  bottom: "_model_layers_5_self_attn_k_proj_Add_original_bnorm"
  top: "_model_layers_5_self_attn_k_proj_Add_original"
  base_type: "Scale"
  estimator_group: "Scale"
  scale_param {
    axis: 1
    bias_term: true
  }
}
layer {
  name: "_model_layers_5_self_attn_Reshape_3"
  type: "Ara2Reshape"
  bottom: "_model_layers_5_self_attn_k_proj_Add_original"
  top: "_model_layers_5_self_attn_Reshape_3"
  base_type: "Reshape"
  estimator_group: "Reshape"
  reshape_param {
    shape {
      dim: 1
      dim: 32
      dim: 128
      dim: 256
    }
  }
}
layer {
  name: "_model_layers_5_self_attn_Add_1"
  type: "Ara2Eltwise"
  bottom: "_model_layers_5_self_attn_Reshape_3"
  bottom: "position_ids_embedded"
  top: "_model_layers_5_self_attn_Add_1"
  base_type: "Eltwise"
  estimator_group: "Eltwise"
  eltwise_param {
    operation: ROPE
    broadcast1: 0.0
    broadcast1: 1.0
    broadcast1: 0.5
    broadcast1: 0.0
  }
}
layer {
  name: "_model_layers_5_self_attn_1_Reshape_1"
  type: "Ara2Reshape"
  bottom: "_model_layers_5_self_attn_Add_1"
  top: "_model_layers_5_self_attn_1_Reshape_1"
  base_type: "Reshape"
  estimator_group: "Reshape"
  reshape_param {
    shape {
      dim: 1
      dim: 1
      dim: 4096
      dim: 256
    }
  }
}
layer {
  name: "_model_layers_5_k_cache"
  type: "Ara2Permute"
  bottom: "_model_layers_5_self_attn_1_Reshape_1"
  top: "_model_layers_5_k_cache"
  base_type: "Permute"
  estimator_group: "Permute"
  permute_param {
    order: 0
    order: 1
    order: 3
    order: 2
  }
  isKeyOutput: 5
  isOutput: true
}
layer {
  name: "_model_layers_5_self_attn_v_proj_MatMul"
  type: "Ara2Convolution"
  bottom: "_model_layers_5_residue_rshp_2"
  top: "_model_layers_5_self_attn_v_proj_MatMul"
  base_type: "Convolution"
  estimator_group: "Convolution"
  convolution_param {
    num_output: 4096
    bias_term: false
    kernel_size: 1
    kernel_size: 1
  }
}
layer {
  name: "_model_layers_5_self_attn_v_proj_Add_original_bnorm"
  type: "Ara2BatchNorm"
  bottom: "_model_layers_5_self_attn_v_proj_MatMul"
  top: "_model_layers_5_self_attn_v_proj_Add_original_bnorm"
  base_type: "BatchNorm"
  estimator_group: "BatchNorm"
  batch_norm_param {
    use_global_stats: true
    eps: 0.0
  }
}
layer {
  name: "_model_layers_5_self_attn_v_proj_Add_original"
  type: "Ara2Scale"
  bottom: "_model_layers_5_self_attn_v_proj_Add_original_bnorm"
  top: "_model_layers_5_self_attn_v_proj_Add_original"
  base_type: "Scale"
  estimator_group: "Scale"
  scale_param {
    axis: 1
    bias_term: true
  }
}
layer {
  name: "_model_layers_5_self_attn_2_Reshape_1"
  type: "Ara2Reshape"
  bottom: "_model_layers_5_self_attn_v_proj_Add_original"
  top: "_model_layers_5_self_attn_2_Reshape_1"
  base_type: "Reshape"
  estimator_group: "Reshape"
  reshape_param {
    shape {
      dim: 1
      dim: 1
      dim: 4096
      dim: 256
    }
  }
}
layer {
  name: "_model_layers_5_v_cache"
  type: "Ara2Permute"
  bottom: "_model_layers_5_self_attn_2_Reshape_1"
  top: "_model_layers_5_v_cache"
  base_type: "Permute"
  estimator_group: "Permute"
  permute_param {
    order: 0
    order: 1
    order: 3
    order: 2
  }
  isValueOutput: 5
  isOutput: true
}
layer {
  name: "_model_layers_5_self_attn_Reshape_2"
  type: "Ara2Reshape"
  bottom: "_model_layers_5_self_attn_v_proj_Add_original"
  top: "_model_layers_5_self_attn_Reshape_2"
  base_type: "Reshape"
  estimator_group: "Reshape"
  reshape_param {
    shape {
      dim: 1
      dim: 32
      dim: 128
      dim: 256
    }
  }
}
layer {
  name: "_model_layers_5_self_attn_Transpose_2"
  type: "Ara2PermuteNnp"
  bottom: "_model_layers_5_self_attn_Reshape_2"
  top: "_model_layers_5_self_attn_Transpose_2"
  base_type: "PermuteNnp"
  estimator_group: "PermuteNnp"
  permute_nnp_param {
    order: 0
    order: 1
    order: 3
    order: 2
  }
}
layer {
  name: "_model_layers_5_self_attn_MatMul"
  type: "Ara2BatchDot"
  bottom: "_model_layers_5_self_attn_Add_1"
  bottom: "_model_layers_5_self_attn_Add"
  top: "_model_layers_5_self_attn_MatMul"
  base_type: "BatchDot"
  estimator_group: "BatchDot"
  batch_dot_param {
    transpose_a: 1
    transpose_b: 0
    multiplier: 0.08838834916
  }
}
layer {
  name: "_model_layers_5_self_attn_Softmax"
  type: "Ara2AttentionSoftmax"
  bottom: "_model_layers_5_self_attn_MatMul"
  bottom: "valid_till"
  top: "_model_layers_5_self_attn_Softmax"
  base_type: "AttentionSoftmax"
  estimator_group: "AttentionSoftmax"
  attentionsoftmax_param {
    axis: 2
  }
}
layer {
  name: "_model_layers_5_self_attn_MatMul_1"
  type: "Ara2BatchDot"
  bottom: "_model_layers_5_self_attn_Transpose_2"
  bottom: "_model_layers_5_self_attn_Softmax"
  top: "_model_layers_5_self_attn_MatMul_1"
  base_type: "BatchDot"
  estimator_group: "BatchDot"
  batch_dot_param {
    transpose_a: 1
    transpose_b: 0
  }
}
layer {
  name: "_model_layers_5_self_attn_o_proj_MatMul_ara_reshape_0"
  type: "Ara2Reshape"
  bottom: "_model_layers_5_self_attn_MatMul_1"
  top: "_model_layers_5_self_attn_o_proj_MatMul_ara_reshape_0"
  base_type: "Reshape"
  estimator_group: "Reshape"
  reshape_param {
    shape {
      dim: 1
      dim: 4096
      dim: 1
      dim: 256
    }
  }
}
layer {
  name: "_model_layers_5_self_attn_o_proj_MatMul_ara_inrp"
  type: "Ara2Convolution"
  bottom: "_model_layers_5_self_attn_o_proj_MatMul_ara_reshape_0"
  top: "_model_layers_5_self_attn_o_proj_MatMul_ara_inrp"
  base_type: "Convolution"
  estimator_group: "Convolution"
  convolution_param {
    num_output: 4096
    bias_term: false
    kernel_size: 1
    kernel_size: 1
  }
}
layer {
  name: "_model_layers_5_Add"
  type: "Ara2Eltwise"
  bottom: "_model_layers_5_self_attn_o_proj_MatMul_ara_inrp"
  bottom: "_model_layers_5_residue_rshp_1"
  top: "_model_layers_5_Add"
  base_type: "Eltwise"
  estimator_group: "Eltwise"
  eltwise_param {
    operation: SUM
    broadcast0: 0.0
    broadcast0: 0.0
    broadcast0: 0.0
    broadcast1: 0.0
    broadcast1: 0.0
    broadcast1: 0.0
  }
}
layer {
  name: "_model_layers_5_rshp_5_Reshape"
  type: "Ara2Reshape"
  bottom: "_model_layers_5_Add"
  top: "_model_layers_5_rshp_5_Reshape"
  base_type: "Reshape"
  estimator_group: "Reshape"
  reshape_param {
    shape {
      dim: 1
      dim: 1
      dim: 4096
      dim: 256
    }
  }
}
layer {
  name: "_model_layers_5_prm_5_PermuteNnp"
  type: "Ara2PermuteNnp"
  bottom: "_model_layers_5_rshp_5_Reshape"
  top: "_model_layers_5_prm_5_PermuteNnp"
  base_type: "PermuteNnp"
  estimator_group: "PermuteNnp"
  permute_nnp_param {
    order: 0
    order: 1
    order: 3
    order: 2
  }
}
layer {
  name: "_model_layers_5_post_attention_layernorm_Mul_1_ara_LayerNorm_0"
  type: "Ara2LayerNorm"
  bottom: "_model_layers_5_prm_5_PermuteNnp"
  top: "_model_layers_5_post_attention_layernorm_Mul_1_ara_LayerNorm_0"
  base_type: "LayerNorm"
  estimator_group: "LayerNorm"
  layer_norm_param {
    axis: 3
    eps: 1e-06
    output_mean_var: false
    uses_mean: false
  }
}
layer {
  name: "_model_layers_5_prm_6_PermuteNnp"
  type: "Ara2PermuteNnp"
  bottom: "_model_layers_5_post_attention_layernorm_Mul_1_ara_LayerNorm_0"
  top: "_model_layers_5_prm_6_PermuteNnp"
  base_type: "PermuteNnp"
  estimator_group: "PermuteNnp"
  permute_nnp_param {
    order: 0
    order: 1
    order: 3
    order: 2
  }
}
layer {
  name: "_model_layers_5_rshp_6_Reshape"
  type: "Ara2Reshape"
  bottom: "_model_layers_5_prm_6_PermuteNnp"
  top: "_model_layers_5_rshp_6_Reshape"
  base_type: "Reshape"
  estimator_group: "Reshape"
  reshape_param {
    shape {
      dim: 1
      dim: 4096
      dim: 1
      dim: 256
    }
  }
}
layer {
  name: "_model_layers_5_mlp_up_proj_MatMul_ara_inrp"
  type: "Ara2Convolution"
  bottom: "_model_layers_5_rshp_6_Reshape"
  top: "_model_layers_5_mlp_up_proj_MatMul_ara_inrp"
  base_type: "Convolution"
  estimator_group: "Convolution"
  convolution_param {
    num_output: 11008
    bias_term: false
    kernel_size: 1
    kernel_size: 1
  }
}
layer {
  name: "_model_layers_5_mlp_gate_proj_MatMul_ara_inrp"
  type: "Ara2Convolution"
  bottom: "_model_layers_5_rshp_6_Reshape"
  top: "_model_layers_5_mlp_gate_proj_MatMul_ara_inrp"
  base_type: "Convolution"
  estimator_group: "Convolution"
  convolution_param {
    num_output: 11008
    bias_term: false
    kernel_size: 1
    kernel_size: 1
  }
}
layer {
  name: "_model_layers_5_mlp_act_fn_Mul"
  type: "Ara2Swish"
  bottom: "_model_layers_5_mlp_gate_proj_MatMul_ara_inrp"
  top: "_model_layers_5_mlp_act_fn_Mul"
  base_type: "Swish"
  estimator_group: "activation"
}
layer {
  name: "_model_layers_5_mlp_Mul"
  type: "Ara2Eltwise"
  bottom: "_model_layers_5_mlp_up_proj_MatMul_ara_inrp"
  bottom: "_model_layers_5_mlp_act_fn_Mul"
  top: "_model_layers_5_mlp_Mul"
  base_type: "Eltwise"
  estimator_group: "Eltwise"
  eltwise_param {
    operation: PROD
    broadcast0: 0.0
    broadcast0: 0.0
    broadcast0: 0.0
    broadcast1: 0.0
    broadcast1: 0.0
    broadcast1: 0.0
  }
}
layer {
  name: "_model_layers_5_mlp_down_proj_MatMul_ara_inrp"
  type: "Ara2Convolution"
  bottom: "_model_layers_5_mlp_Mul"
  top: "_model_layers_5_mlp_down_proj_MatMul_ara_inrp"
  base_type: "Convolution"
  estimator_group: "Convolution"
  convolution_param {
    num_output: 4096
    bias_term: false
    kernel_size: 1
    kernel_size: 1
  }
}
layer {
  name: "_model_layers_5_Add_1"
  type: "Ara2Eltwise"
  bottom: "_model_layers_5_Add"
  bottom: "_model_layers_5_mlp_down_proj_MatMul_ara_inrp"
  top: "_model_layers_5_Add_1"
  base_type: "Eltwise"
  estimator_group: "Eltwise"
  eltwise_param {
    operation: SUM
    broadcast0: 0.0
    broadcast0: 0.0
    broadcast0: 0.0
    broadcast1: 0.0
    broadcast1: 0.0
    broadcast1: 0.0
  }
  isOutput: true
}
layer {
  name: "_model_layers_5_residue_perm_3"
  type: "Ara2Reshape"
  bottom: "_model_layers_5_Add_1"
  top: "_model_layers_5_residue_perm_3"
  base_type: "Reshape"
  estimator_group: "Reshape"
  reshape_param {
    shape {
      dim: 1
      dim: 1
      dim: 4096
      dim: 256
    }
  }
}
layer {
  name: "_model_layers_5_residue_rshp_3"
  type: "Ara2PermuteNnp"
  bottom: "_model_layers_5_residue_perm_3"
  top: "_model_layers_5_residue_rshp_3"
  base_type: "PermuteNnp"
  estimator_group: "PermuteNnp"
  permute_nnp_param {
    order: 0
    order: 1
    order: 3
    order: 2
  }
}



layer {
  name: "_model_layers_6_residue_perm_1"
  type: "Ara2PermuteNnp"
  bottom: "_model_layers_5_residue_rshp_3"
  top: "_model_layers_6_residue_perm_1"
  base_type: "PermuteNnp"
  estimator_group: "PermuteNnp"
  permute_nnp_param {
    order: 0
    order: 1
    order: 3
    order: 2
  }
}
layer {
  name: "_model_layers_6_residue_rshp_1"
  type: "Ara2Reshape"
  bottom: "_model_layers_6_residue_perm_1"
  top: "_model_layers_6_residue_rshp_1"
  base_type: "Reshape"
  estimator_group: "Reshape"
  reshape_param {
    shape {
      dim: 1
      dim: 4096
      dim: 1
      dim: 256
    }
  }
}

layer {
  name: "_model_layers_6_input_layernorm_Mul_1_ara_LayerNorm_0"
  type: "Ara2LayerNorm"
  bottom: "_model_layers_5_residue_rshp_3"
  top: "_model_layers_6_input_layernorm_Mul_1_ara_LayerNorm_0"
  base_type: "LayerNorm"
  estimator_group: "LayerNorm"
  layer_norm_param {
    axis: 3
    eps: 1e-06
    output_mean_var: false
    uses_mean: false
  }
}
layer {
  name: "_model_layers_6_residue_perm_2"
  type: "Ara2PermuteNnp"
  bottom: "_model_layers_6_input_layernorm_Mul_1_ara_LayerNorm_0"
  top: "_model_layers_6_residue_perm_2"
  base_type: "PermuteNnp"
  estimator_group: "PermuteNnp"
  permute_nnp_param {
    order: 0
    order: 1
    order: 3
    order: 2
  }
}
layer {
  name: "_model_layers_6_residue_rshp_2"
  type: "Ara2Reshape"
  bottom: "_model_layers_6_residue_perm_2"
  top: "_model_layers_6_residue_rshp_2"
  base_type: "Reshape"
  estimator_group: "Reshape"
  reshape_param {
    shape {
      dim: 1
      dim: 4096
      dim: 1
      dim: 256
    }
  }
}
layer {
  name: "_model_layers_6_self_attn_q_proj_MatMul"
  type: "Ara2Convolution"
  bottom: "_model_layers_6_residue_rshp_2"
  top: "_model_layers_6_self_attn_q_proj_MatMul"
  base_type: "Convolution"
  estimator_group: "Convolution"
  convolution_param {
    num_output: 4096
    bias_term: false
    kernel_size: 1
    kernel_size: 1
  }
}
layer {
  name: "_model_layers_6_self_attn_q_proj_Add_original_bnorm"
  type: "Ara2BatchNorm"
  bottom: "_model_layers_6_self_attn_q_proj_MatMul"
  top: "_model_layers_6_self_attn_q_proj_Add_original_bnorm"
  base_type: "BatchNorm"
  estimator_group: "BatchNorm"
  batch_norm_param {
    use_global_stats: true
    eps: 0.0
  }
}
layer {
  name: "_model_layers_6_self_attn_q_proj_Add_original"
  type: "Ara2Scale"
  bottom: "_model_layers_6_self_attn_q_proj_Add_original_bnorm"
  top: "_model_layers_6_self_attn_q_proj_Add_original"
  base_type: "Scale"
  estimator_group: "Scale"
  scale_param {
    axis: 1
    bias_term: true
  }
}
layer {
  name: "_model_layers_6_self_attn_Reshape_1"
  type: "Ara2Reshape"
  bottom: "_model_layers_6_self_attn_q_proj_Add_original"
  top: "_model_layers_6_self_attn_Reshape_1"
  base_type: "Reshape"
  estimator_group: "Reshape"
  reshape_param {
    shape {
      dim: 1
      dim: 32
      dim: 128
      dim: 256
    }
  }
}
layer {
  name: "_model_layers_6_self_attn_Add"
  type: "Ara2Eltwise"
  bottom: "_model_layers_6_self_attn_Reshape_1"
  bottom: "position_ids_embedded"
  top: "_model_layers_6_self_attn_Add"
  base_type: "Eltwise"
  estimator_group: "Eltwise"
  eltwise_param {
    operation: ROPE
    broadcast1: 0.0
    broadcast1: 1.0
    broadcast1: 0.5
    broadcast1: 0.0
  }
}
layer {
  name: "_model_layers_6_self_attn_k_proj_MatMul"
  type: "Ara2Convolution"
  bottom: "_model_layers_6_residue_rshp_2"
  top: "_model_layers_6_self_attn_k_proj_MatMul"
  base_type: "Convolution"
  estimator_group: "Convolution"
  convolution_param {
    num_output: 4096
    bias_term: false
    kernel_size: 1
    kernel_size: 1
  }
}
layer {
  name: "_model_layers_6_self_attn_k_proj_Add_original_bnorm"
  type: "Ara2BatchNorm"
  bottom: "_model_layers_6_self_attn_k_proj_MatMul"
  top: "_model_layers_6_self_attn_k_proj_Add_original_bnorm"
  base_type: "BatchNorm"
  estimator_group: "BatchNorm"
  batch_norm_param {
    use_global_stats: true
    eps: 0.0
  }
}
layer {
  name: "_model_layers_6_self_attn_k_proj_Add_original"
  type: "Ara2Scale"
  bottom: "_model_layers_6_self_attn_k_proj_Add_original_bnorm"
  top: "_model_layers_6_self_attn_k_proj_Add_original"
  base_type: "Scale"
  estimator_group: "Scale"
  scale_param {
    axis: 1
    bias_term: true
  }
}
layer {
  name: "_model_layers_6_self_attn_Reshape_3"
  type: "Ara2Reshape"
  bottom: "_model_layers_6_self_attn_k_proj_Add_original"
  top: "_model_layers_6_self_attn_Reshape_3"
  base_type: "Reshape"
  estimator_group: "Reshape"
  reshape_param {
    shape {
      dim: 1
      dim: 32
      dim: 128
      dim: 256
    }
  }
}
layer {
  name: "_model_layers_6_self_attn_Add_1"
  type: "Ara2Eltwise"
  bottom: "_model_layers_6_self_attn_Reshape_3"
  bottom: "position_ids_embedded"
  top: "_model_layers_6_self_attn_Add_1"
  base_type: "Eltwise"
  estimator_group: "Eltwise"
  eltwise_param {
    operation: ROPE
    broadcast1: 0.0
    broadcast1: 1.0
    broadcast1: 0.5
    broadcast1: 0.0
  }
}
layer {
  name: "_model_layers_6_self_attn_1_Reshape_1"
  type: "Ara2Reshape"
  bottom: "_model_layers_6_self_attn_Add_1"
  top: "_model_layers_6_self_attn_1_Reshape_1"
  base_type: "Reshape"
  estimator_group: "Reshape"
  reshape_param {
    shape {
      dim: 1
      dim: 1
      dim: 4096
      dim: 256
    }
  }
}
layer {
  name: "_model_layers_6_k_cache"
  type: "Ara2Permute"
  bottom: "_model_layers_6_self_attn_1_Reshape_1"
  top: "_model_layers_6_k_cache"
  base_type: "Permute"
  estimator_group: "Permute"
  permute_param {
    order: 0
    order: 1
    order: 3
    order: 2
  }
  isKeyOutput: 6
  isOutput: true
}
layer {
  name: "_model_layers_6_self_attn_v_proj_MatMul"
  type: "Ara2Convolution"
  bottom: "_model_layers_6_residue_rshp_2"
  top: "_model_layers_6_self_attn_v_proj_MatMul"
  base_type: "Convolution"
  estimator_group: "Convolution"
  convolution_param {
    num_output: 4096
    bias_term: false
    kernel_size: 1
    kernel_size: 1
  }
}
layer {
  name: "_model_layers_6_self_attn_v_proj_Add_original_bnorm"
  type: "Ara2BatchNorm"
  bottom: "_model_layers_6_self_attn_v_proj_MatMul"
  top: "_model_layers_6_self_attn_v_proj_Add_original_bnorm"
  base_type: "BatchNorm"
  estimator_group: "BatchNorm"
  batch_norm_param {
    use_global_stats: true
    eps: 0.0
  }
}
layer {
  name: "_model_layers_6_self_attn_v_proj_Add_original"
  type: "Ara2Scale"
  bottom: "_model_layers_6_self_attn_v_proj_Add_original_bnorm"
  top: "_model_layers_6_self_attn_v_proj_Add_original"
  base_type: "Scale"
  estimator_group: "Scale"
  scale_param {
    axis: 1
    bias_term: true
  }
}
layer {
  name: "_model_layers_6_self_attn_2_Reshape_1"
  type: "Ara2Reshape"
  bottom: "_model_layers_6_self_attn_v_proj_Add_original"
  top: "_model_layers_6_self_attn_2_Reshape_1"
  base_type: "Reshape"
  estimator_group: "Reshape"
  reshape_param {
    shape {
      dim: 1
      dim: 1
      dim: 4096
      dim: 256
    }
  }
}
layer {
  name: "_model_layers_6_v_cache"
  type: "Ara2Permute"
  bottom: "_model_layers_6_self_attn_2_Reshape_1"
  top: "_model_layers_6_v_cache"
  base_type: "Permute"
  estimator_group: "Permute"
  permute_param {
    order: 0
    order: 1
    order: 3
    order: 2
  }
  isValueOutput: 6
  isOutput: true
}
layer {
  name: "_model_layers_6_self_attn_Reshape_2"
  type: "Ara2Reshape"
  bottom: "_model_layers_6_self_attn_v_proj_Add_original"
  top: "_model_layers_6_self_attn_Reshape_2"
  base_type: "Reshape"
  estimator_group: "Reshape"
  reshape_param {
    shape {
      dim: 1
      dim: 32
      dim: 128
      dim: 256
    }
  }
}
layer {
  name: "_model_layers_6_self_attn_Transpose_2"
  type: "Ara2PermuteNnp"
  bottom: "_model_layers_6_self_attn_Reshape_2"
  top: "_model_layers_6_self_attn_Transpose_2"
  base_type: "PermuteNnp"
  estimator_group: "PermuteNnp"
  permute_nnp_param {
    order: 0
    order: 1
    order: 3
    order: 2
  }
}
layer {
  name: "_model_layers_6_self_attn_MatMul"
  type: "Ara2BatchDot"
  bottom: "_model_layers_6_self_attn_Add_1"
  bottom: "_model_layers_6_self_attn_Add"
  top: "_model_layers_6_self_attn_MatMul"
  base_type: "BatchDot"
  estimator_group: "BatchDot"
  batch_dot_param {
    transpose_a: 1
    transpose_b: 0
    multiplier: 0.08838834916
  }
}
layer {
  name: "_model_layers_6_self_attn_Softmax"
  type: "Ara2AttentionSoftmax"
  bottom: "_model_layers_6_self_attn_MatMul"
  bottom: "valid_till"
  top: "_model_layers_6_self_attn_Softmax"
  base_type: "AttentionSoftmax"
  estimator_group: "AttentionSoftmax"
  attentionsoftmax_param {
    axis: 2
  }
}
layer {
  name: "_model_layers_6_self_attn_MatMul_1"
  type: "Ara2BatchDot"
  bottom: "_model_layers_6_self_attn_Transpose_2"
  bottom: "_model_layers_6_self_attn_Softmax"
  top: "_model_layers_6_self_attn_MatMul_1"
  base_type: "BatchDot"
  estimator_group: "BatchDot"
  batch_dot_param {
    transpose_a: 1
    transpose_b: 0
  }
}
layer {
  name: "_model_layers_6_self_attn_o_proj_MatMul_ara_reshape_0"
  type: "Ara2Reshape"
  bottom: "_model_layers_6_self_attn_MatMul_1"
  top: "_model_layers_6_self_attn_o_proj_MatMul_ara_reshape_0"
  base_type: "Reshape"
  estimator_group: "Reshape"
  reshape_param {
    shape {
      dim: 1
      dim: 4096
      dim: 1
      dim: 256
    }
  }
}
layer {
  name: "_model_layers_6_self_attn_o_proj_MatMul_ara_inrp"
  type: "Ara2Convolution"
  bottom: "_model_layers_6_self_attn_o_proj_MatMul_ara_reshape_0"
  top: "_model_layers_6_self_attn_o_proj_MatMul_ara_inrp"
  base_type: "Convolution"
  estimator_group: "Convolution"
  convolution_param {
    num_output: 4096
    bias_term: false
    kernel_size: 1
    kernel_size: 1
  }
}
layer {
  name: "_model_layers_6_Add"
  type: "Ara2Eltwise"
  bottom: "_model_layers_6_self_attn_o_proj_MatMul_ara_inrp"
  bottom: "_model_layers_6_residue_rshp_1"
  top: "_model_layers_6_Add"
  base_type: "Eltwise"
  estimator_group: "Eltwise"
  eltwise_param {
    operation: SUM
    broadcast0: 0.0
    broadcast0: 0.0
    broadcast0: 0.0
    broadcast1: 0.0
    broadcast1: 0.0
    broadcast1: 0.0
  }
}
layer {
  name: "_model_layers_6_rshp_5_Reshape"
  type: "Ara2Reshape"
  bottom: "_model_layers_6_Add"
  top: "_model_layers_6_rshp_5_Reshape"
  base_type: "Reshape"
  estimator_group: "Reshape"
  reshape_param {
    shape {
      dim: 1
      dim: 1
      dim: 4096
      dim: 256
    }
  }
}
layer {
  name: "_model_layers_6_prm_5_PermuteNnp"
  type: "Ara2PermuteNnp"
  bottom: "_model_layers_6_rshp_5_Reshape"
  top: "_model_layers_6_prm_5_PermuteNnp"
  base_type: "PermuteNnp"
  estimator_group: "PermuteNnp"
  permute_nnp_param {
    order: 0
    order: 1
    order: 3
    order: 2
  }
}
layer {
  name: "_model_layers_6_post_attention_layernorm_Mul_1_ara_LayerNorm_0"
  type: "Ara2LayerNorm"
  bottom: "_model_layers_6_prm_5_PermuteNnp"
  top: "_model_layers_6_post_attention_layernorm_Mul_1_ara_LayerNorm_0"
  base_type: "LayerNorm"
  estimator_group: "LayerNorm"
  layer_norm_param {
    axis: 3
    eps: 1e-06
    output_mean_var: false
    uses_mean: false
  }
}
layer {
  name: "_model_layers_6_prm_6_PermuteNnp"
  type: "Ara2PermuteNnp"
  bottom: "_model_layers_6_post_attention_layernorm_Mul_1_ara_LayerNorm_0"
  top: "_model_layers_6_prm_6_PermuteNnp"
  base_type: "PermuteNnp"
  estimator_group: "PermuteNnp"
  permute_nnp_param {
    order: 0
    order: 1
    order: 3
    order: 2
  }
}
layer {
  name: "_model_layers_6_rshp_6_Reshape"
  type: "Ara2Reshape"
  bottom: "_model_layers_6_prm_6_PermuteNnp"
  top: "_model_layers_6_rshp_6_Reshape"
  base_type: "Reshape"
  estimator_group: "Reshape"
  reshape_param {
    shape {
      dim: 1
      dim: 4096
      dim: 1
      dim: 256
    }
  }
}
layer {
  name: "_model_layers_6_mlp_up_proj_MatMul_ara_inrp"
  type: "Ara2Convolution"
  bottom: "_model_layers_6_rshp_6_Reshape"
  top: "_model_layers_6_mlp_up_proj_MatMul_ara_inrp"
  base_type: "Convolution"
  estimator_group: "Convolution"
  convolution_param {
    num_output: 11008
    bias_term: false
    kernel_size: 1
    kernel_size: 1
  }
}
layer {
  name: "_model_layers_6_mlp_gate_proj_MatMul_ara_inrp"
  type: "Ara2Convolution"
  bottom: "_model_layers_6_rshp_6_Reshape"
  top: "_model_layers_6_mlp_gate_proj_MatMul_ara_inrp"
  base_type: "Convolution"
  estimator_group: "Convolution"
  convolution_param {
    num_output: 11008
    bias_term: false
    kernel_size: 1
    kernel_size: 1
  }
}
layer {
  name: "_model_layers_6_mlp_act_fn_Mul"
  type: "Ara2Swish"
  bottom: "_model_layers_6_mlp_gate_proj_MatMul_ara_inrp"
  top: "_model_layers_6_mlp_act_fn_Mul"
  base_type: "Swish"
  estimator_group: "activation"
}
layer {
  name: "_model_layers_6_mlp_Mul"
  type: "Ara2Eltwise"
  bottom: "_model_layers_6_mlp_up_proj_MatMul_ara_inrp"
  bottom: "_model_layers_6_mlp_act_fn_Mul"
  top: "_model_layers_6_mlp_Mul"
  base_type: "Eltwise"
  estimator_group: "Eltwise"
  eltwise_param {
    operation: PROD
    broadcast0: 0.0
    broadcast0: 0.0
    broadcast0: 0.0
    broadcast1: 0.0
    broadcast1: 0.0
    broadcast1: 0.0
  }
}
layer {
  name: "_model_layers_6_mlp_down_proj_MatMul_ara_inrp"
  type: "Ara2Convolution"
  bottom: "_model_layers_6_mlp_Mul"
  top: "_model_layers_6_mlp_down_proj_MatMul_ara_inrp"
  base_type: "Convolution"
  estimator_group: "Convolution"
  convolution_param {
    num_output: 4096
    bias_term: false
    kernel_size: 1
    kernel_size: 1
  }
}
layer {
  name: "_model_layers_6_Add_1"
  type: "Ara2Eltwise"
  bottom: "_model_layers_6_Add"
  bottom: "_model_layers_6_mlp_down_proj_MatMul_ara_inrp"
  top: "_model_layers_6_Add_1"
  base_type: "Eltwise"
  estimator_group: "Eltwise"
  eltwise_param {
    operation: SUM
    broadcast0: 0.0
    broadcast0: 0.0
    broadcast0: 0.0
    broadcast1: 0.0
    broadcast1: 0.0
    broadcast1: 0.0
  }
  isOutput: true
}
layer {
  name: "_model_layers_6_residue_perm_3"
  type: "Ara2Reshape"
  bottom: "_model_layers_6_Add_1"
  top: "_model_layers_6_residue_perm_3"
  base_type: "Reshape"
  estimator_group: "Reshape"
  reshape_param {
    shape {
      dim: 1
      dim: 1
      dim: 4096
      dim: 256
    }
  }
}
layer {
  name: "_model_layers_6_residue_rshp_3"
  type: "Ara2PermuteNnp"
  bottom: "_model_layers_6_residue_perm_3"
  top: "_model_layers_6_residue_rshp_3"
  base_type: "PermuteNnp"
  estimator_group: "PermuteNnp"
  permute_nnp_param {
    order: 0
    order: 1
    order: 3
    order: 2
  }
}



layer {
  name: "_model_layers_7_residue_perm_1"
  type: "Ara2PermuteNnp"
  bottom: "_model_layers_6_residue_rshp_3"
  top: "_model_layers_7_residue_perm_1"
  base_type: "PermuteNnp"
  estimator_group: "PermuteNnp"
  permute_nnp_param {
    order: 0
    order: 1
    order: 3
    order: 2
  }
}
layer {
  name: "_model_layers_7_residue_rshp_1"
  type: "Ara2Reshape"
  bottom: "_model_layers_7_residue_perm_1"
  top: "_model_layers_7_residue_rshp_1"
  base_type: "Reshape"
  estimator_group: "Reshape"
  reshape_param {
    shape {
      dim: 1
      dim: 4096
      dim: 1
      dim: 256
    }
  }
}

layer {
  name: "_model_layers_7_input_layernorm_Mul_1_ara_LayerNorm_0"
  type: "Ara2LayerNorm"
  bottom: "_model_layers_6_residue_rshp_3"
  top: "_model_layers_7_input_layernorm_Mul_1_ara_LayerNorm_0"
  base_type: "LayerNorm"
  estimator_group: "LayerNorm"
  layer_norm_param {
    axis: 3
    eps: 1e-06
    output_mean_var: false
    uses_mean: false
  }
}
layer {
  name: "_model_layers_7_residue_perm_2"
  type: "Ara2PermuteNnp"
  bottom: "_model_layers_7_input_layernorm_Mul_1_ara_LayerNorm_0"
  top: "_model_layers_7_residue_perm_2"
  base_type: "PermuteNnp"
  estimator_group: "PermuteNnp"
  permute_nnp_param {
    order: 0
    order: 1
    order: 3
    order: 2
  }
}
layer {
  name: "_model_layers_7_residue_rshp_2"
  type: "Ara2Reshape"
  bottom: "_model_layers_7_residue_perm_2"
  top: "_model_layers_7_residue_rshp_2"
  base_type: "Reshape"
  estimator_group: "Reshape"
  reshape_param {
    shape {
      dim: 1
      dim: 4096
      dim: 1
      dim: 256
    }
  }
}
layer {
  name: "_model_layers_7_self_attn_q_proj_MatMul"
  type: "Ara2Convolution"
  bottom: "_model_layers_7_residue_rshp_2"
  top: "_model_layers_7_self_attn_q_proj_MatMul"
  base_type: "Convolution"
  estimator_group: "Convolution"
  convolution_param {
    num_output: 4096
    bias_term: false
    kernel_size: 1
    kernel_size: 1
  }
}
layer {
  name: "_model_layers_7_self_attn_q_proj_Add_original_bnorm"
  type: "Ara2BatchNorm"
  bottom: "_model_layers_7_self_attn_q_proj_MatMul"
  top: "_model_layers_7_self_attn_q_proj_Add_original_bnorm"
  base_type: "BatchNorm"
  estimator_group: "BatchNorm"
  batch_norm_param {
    use_global_stats: true
    eps: 0.0
  }
}
layer {
  name: "_model_layers_7_self_attn_q_proj_Add_original"
  type: "Ara2Scale"
  bottom: "_model_layers_7_self_attn_q_proj_Add_original_bnorm"
  top: "_model_layers_7_self_attn_q_proj_Add_original"
  base_type: "Scale"
  estimator_group: "Scale"
  scale_param {
    axis: 1
    bias_term: true
  }
}
layer {
  name: "_model_layers_7_self_attn_Reshape_1"
  type: "Ara2Reshape"
  bottom: "_model_layers_7_self_attn_q_proj_Add_original"
  top: "_model_layers_7_self_attn_Reshape_1"
  base_type: "Reshape"
  estimator_group: "Reshape"
  reshape_param {
    shape {
      dim: 1
      dim: 32
      dim: 128
      dim: 256
    }
  }
}
layer {
  name: "_model_layers_7_self_attn_Add"
  type: "Ara2Eltwise"
  bottom: "_model_layers_7_self_attn_Reshape_1"
  bottom: "position_ids_embedded"
  top: "_model_layers_7_self_attn_Add"
  base_type: "Eltwise"
  estimator_group: "Eltwise"
  eltwise_param {
    operation: ROPE
    broadcast1: 0.0
    broadcast1: 1.0
    broadcast1: 0.5
    broadcast1: 0.0
  }
}
layer {
  name: "_model_layers_7_self_attn_k_proj_MatMul"
  type: "Ara2Convolution"
  bottom: "_model_layers_7_residue_rshp_2"
  top: "_model_layers_7_self_attn_k_proj_MatMul"
  base_type: "Convolution"
  estimator_group: "Convolution"
  convolution_param {
    num_output: 4096
    bias_term: false
    kernel_size: 1
    kernel_size: 1
  }
}
layer {
  name: "_model_layers_7_self_attn_k_proj_Add_original_bnorm"
  type: "Ara2BatchNorm"
  bottom: "_model_layers_7_self_attn_k_proj_MatMul"
  top: "_model_layers_7_self_attn_k_proj_Add_original_bnorm"
  base_type: "BatchNorm"
  estimator_group: "BatchNorm"
  batch_norm_param {
    use_global_stats: true
    eps: 0.0
  }
}
layer {
  name: "_model_layers_7_self_attn_k_proj_Add_original"
  type: "Ara2Scale"
  bottom: "_model_layers_7_self_attn_k_proj_Add_original_bnorm"
  top: "_model_layers_7_self_attn_k_proj_Add_original"
  base_type: "Scale"
  estimator_group: "Scale"
  scale_param {
    axis: 1
    bias_term: true
  }
}
layer {
  name: "_model_layers_7_self_attn_Reshape_3"
  type: "Ara2Reshape"
  bottom: "_model_layers_7_self_attn_k_proj_Add_original"
  top: "_model_layers_7_self_attn_Reshape_3"
  base_type: "Reshape"
  estimator_group: "Reshape"
  reshape_param {
    shape {
      dim: 1
      dim: 32
      dim: 128
      dim: 256
    }
  }
}
layer {
  name: "_model_layers_7_self_attn_Add_1"
  type: "Ara2Eltwise"
  bottom: "_model_layers_7_self_attn_Reshape_3"
  bottom: "position_ids_embedded"
  top: "_model_layers_7_self_attn_Add_1"
  base_type: "Eltwise"
  estimator_group: "Eltwise"
  eltwise_param {
    operation: ROPE
    broadcast1: 0.0
    broadcast1: 1.0
    broadcast1: 0.5
    broadcast1: 0.0
  }
}
layer {
  name: "_model_layers_7_self_attn_1_Reshape_1"
  type: "Ara2Reshape"
  bottom: "_model_layers_7_self_attn_Add_1"
  top: "_model_layers_7_self_attn_1_Reshape_1"
  base_type: "Reshape"
  estimator_group: "Reshape"
  reshape_param {
    shape {
      dim: 1
      dim: 1
      dim: 4096
      dim: 256
    }
  }
}
layer {
  name: "_model_layers_7_k_cache"
  type: "Ara2Permute"
  bottom: "_model_layers_7_self_attn_1_Reshape_1"
  top: "_model_layers_7_k_cache"
  base_type: "Permute"
  estimator_group: "Permute"
  permute_param {
    order: 0
    order: 1
    order: 3
    order: 2
  }
  isKeyOutput: 7
  isOutput: true
}
layer {
  name: "_model_layers_7_self_attn_v_proj_MatMul"
  type: "Ara2Convolution"
  bottom: "_model_layers_7_residue_rshp_2"
  top: "_model_layers_7_self_attn_v_proj_MatMul"
  base_type: "Convolution"
  estimator_group: "Convolution"
  convolution_param {
    num_output: 4096
    bias_term: false
    kernel_size: 1
    kernel_size: 1
  }
}
layer {
  name: "_model_layers_7_self_attn_v_proj_Add_original_bnorm"
  type: "Ara2BatchNorm"
  bottom: "_model_layers_7_self_attn_v_proj_MatMul"
  top: "_model_layers_7_self_attn_v_proj_Add_original_bnorm"
  base_type: "BatchNorm"
  estimator_group: "BatchNorm"
  batch_norm_param {
    use_global_stats: true
    eps: 0.0
  }
}
layer {
  name: "_model_layers_7_self_attn_v_proj_Add_original"
  type: "Ara2Scale"
  bottom: "_model_layers_7_self_attn_v_proj_Add_original_bnorm"
  top: "_model_layers_7_self_attn_v_proj_Add_original"
  base_type: "Scale"
  estimator_group: "Scale"
  scale_param {
    axis: 1
    bias_term: true
  }
}
layer {
  name: "_model_layers_7_self_attn_2_Reshape_1"
  type: "Ara2Reshape"
  bottom: "_model_layers_7_self_attn_v_proj_Add_original"
  top: "_model_layers_7_self_attn_2_Reshape_1"
  base_type: "Reshape"
  estimator_group: "Reshape"
  reshape_param {
    shape {
      dim: 1
      dim: 1
      dim: 4096
      dim: 256
    }
  }
}
layer {
  name: "_model_layers_7_v_cache"
  type: "Ara2Permute"
  bottom: "_model_layers_7_self_attn_2_Reshape_1"
  top: "_model_layers_7_v_cache"
  base_type: "Permute"
  estimator_group: "Permute"
  permute_param {
    order: 0
    order: 1
    order: 3
    order: 2
  }
  isValueOutput: 7
  isOutput: true
}
layer {
  name: "_model_layers_7_self_attn_Reshape_2"
  type: "Ara2Reshape"
  bottom: "_model_layers_7_self_attn_v_proj_Add_original"
  top: "_model_layers_7_self_attn_Reshape_2"
  base_type: "Reshape"
  estimator_group: "Reshape"
  reshape_param {
    shape {
      dim: 1
      dim: 32
      dim: 128
      dim: 256
    }
  }
}
layer {
  name: "_model_layers_7_self_attn_Transpose_2"
  type: "Ara2PermuteNnp"
  bottom: "_model_layers_7_self_attn_Reshape_2"
  top: "_model_layers_7_self_attn_Transpose_2"
  base_type: "PermuteNnp"
  estimator_group: "PermuteNnp"
  permute_nnp_param {
    order: 0
    order: 1
    order: 3
    order: 2
  }
}
layer {
  name: "_model_layers_7_self_attn_MatMul"
  type: "Ara2BatchDot"
  bottom: "_model_layers_7_self_attn_Add_1"
  bottom: "_model_layers_7_self_attn_Add"
  top: "_model_layers_7_self_attn_MatMul"
  base_type: "BatchDot"
  estimator_group: "BatchDot"
  batch_dot_param {
    transpose_a: 1
    transpose_b: 0
    multiplier: 0.08838834916
  }
}
layer {
  name: "_model_layers_7_self_attn_Softmax"
  type: "Ara2AttentionSoftmax"
  bottom: "_model_layers_7_self_attn_MatMul"
  bottom: "valid_till"
  top: "_model_layers_7_self_attn_Softmax"
  base_type: "AttentionSoftmax"
  estimator_group: "AttentionSoftmax"
  attentionsoftmax_param {
    axis: 2
  }
}
layer {
  name: "_model_layers_7_self_attn_MatMul_1"
  type: "Ara2BatchDot"
  bottom: "_model_layers_7_self_attn_Transpose_2"
  bottom: "_model_layers_7_self_attn_Softmax"
  top: "_model_layers_7_self_attn_MatMul_1"
  base_type: "BatchDot"
  estimator_group: "BatchDot"
  batch_dot_param {
    transpose_a: 1
    transpose_b: 0
  }
}
layer {
  name: "_model_layers_7_self_attn_o_proj_MatMul_ara_reshape_0"
  type: "Ara2Reshape"
  bottom: "_model_layers_7_self_attn_MatMul_1"
  top: "_model_layers_7_self_attn_o_proj_MatMul_ara_reshape_0"
  base_type: "Reshape"
  estimator_group: "Reshape"
  reshape_param {
    shape {
      dim: 1
      dim: 4096
      dim: 1
      dim: 256
    }
  }
}
layer {
  name: "_model_layers_7_self_attn_o_proj_MatMul_ara_inrp"
  type: "Ara2Convolution"
  bottom: "_model_layers_7_self_attn_o_proj_MatMul_ara_reshape_0"
  top: "_model_layers_7_self_attn_o_proj_MatMul_ara_inrp"
  base_type: "Convolution"
  estimator_group: "Convolution"
  convolution_param {
    num_output: 4096
    bias_term: false
    kernel_size: 1
    kernel_size: 1
  }
}
layer {
  name: "_model_layers_7_Add"
  type: "Ara2Eltwise"
  bottom: "_model_layers_7_self_attn_o_proj_MatMul_ara_inrp"
  bottom: "_model_layers_7_residue_rshp_1"
  top: "_model_layers_7_Add"
  base_type: "Eltwise"
  estimator_group: "Eltwise"
  eltwise_param {
    operation: SUM
    broadcast0: 0.0
    broadcast0: 0.0
    broadcast0: 0.0
    broadcast1: 0.0
    broadcast1: 0.0
    broadcast1: 0.0
  }
}
layer {
  name: "_model_layers_7_rshp_5_Reshape"
  type: "Ara2Reshape"
  bottom: "_model_layers_7_Add"
  top: "_model_layers_7_rshp_5_Reshape"
  base_type: "Reshape"
  estimator_group: "Reshape"
  reshape_param {
    shape {
      dim: 1
      dim: 1
      dim: 4096
      dim: 256
    }
  }
}
layer {
  name: "_model_layers_7_prm_5_PermuteNnp"
  type: "Ara2PermuteNnp"
  bottom: "_model_layers_7_rshp_5_Reshape"
  top: "_model_layers_7_prm_5_PermuteNnp"
  base_type: "PermuteNnp"
  estimator_group: "PermuteNnp"
  permute_nnp_param {
    order: 0
    order: 1
    order: 3
    order: 2
  }
}
layer {
  name: "_model_layers_7_post_attention_layernorm_Mul_1_ara_LayerNorm_0"
  type: "Ara2LayerNorm"
  bottom: "_model_layers_7_prm_5_PermuteNnp"
  top: "_model_layers_7_post_attention_layernorm_Mul_1_ara_LayerNorm_0"
  base_type: "LayerNorm"
  estimator_group: "LayerNorm"
  layer_norm_param {
    axis: 3
    eps: 1e-06
    output_mean_var: false
    uses_mean: false
  }
}
layer {
  name: "_model_layers_7_prm_6_PermuteNnp"
  type: "Ara2PermuteNnp"
  bottom: "_model_layers_7_post_attention_layernorm_Mul_1_ara_LayerNorm_0"
  top: "_model_layers_7_prm_6_PermuteNnp"
  base_type: "PermuteNnp"
  estimator_group: "PermuteNnp"
  permute_nnp_param {
    order: 0
    order: 1
    order: 3
    order: 2
  }
}
layer {
  name: "_model_layers_7_rshp_6_Reshape"
  type: "Ara2Reshape"
  bottom: "_model_layers_7_prm_6_PermuteNnp"
  top: "_model_layers_7_rshp_6_Reshape"
  base_type: "Reshape"
  estimator_group: "Reshape"
  reshape_param {
    shape {
      dim: 1
      dim: 4096
      dim: 1
      dim: 256
    }
  }
}
layer {
  name: "_model_layers_7_mlp_up_proj_MatMul_ara_inrp"
  type: "Ara2Convolution"
  bottom: "_model_layers_7_rshp_6_Reshape"
  top: "_model_layers_7_mlp_up_proj_MatMul_ara_inrp"
  base_type: "Convolution"
  estimator_group: "Convolution"
  convolution_param {
    num_output: 11008
    bias_term: false
    kernel_size: 1
    kernel_size: 1
  }
}
layer {
  name: "_model_layers_7_mlp_gate_proj_MatMul_ara_inrp"
  type: "Ara2Convolution"
  bottom: "_model_layers_7_rshp_6_Reshape"
  top: "_model_layers_7_mlp_gate_proj_MatMul_ara_inrp"
  base_type: "Convolution"
  estimator_group: "Convolution"
  convolution_param {
    num_output: 11008
    bias_term: false
    kernel_size: 1
    kernel_size: 1
  }
}
layer {
  name: "_model_layers_7_mlp_act_fn_Mul"
  type: "Ara2Swish"
  bottom: "_model_layers_7_mlp_gate_proj_MatMul_ara_inrp"
  top: "_model_layers_7_mlp_act_fn_Mul"
  base_type: "Swish"
  estimator_group: "activation"
}
layer {
  name: "_model_layers_7_mlp_Mul"
  type: "Ara2Eltwise"
  bottom: "_model_layers_7_mlp_up_proj_MatMul_ara_inrp"
  bottom: "_model_layers_7_mlp_act_fn_Mul"
  top: "_model_layers_7_mlp_Mul"
  base_type: "Eltwise"
  estimator_group: "Eltwise"
  eltwise_param {
    operation: PROD
    broadcast0: 0.0
    broadcast0: 0.0
    broadcast0: 0.0
    broadcast1: 0.0
    broadcast1: 0.0
    broadcast1: 0.0
  }
}
layer {
  name: "_model_layers_7_mlp_down_proj_MatMul_ara_inrp"
  type: "Ara2Convolution"
  bottom: "_model_layers_7_mlp_Mul"
  top: "_model_layers_7_mlp_down_proj_MatMul_ara_inrp"
  base_type: "Convolution"
  estimator_group: "Convolution"
  convolution_param {
    num_output: 4096
    bias_term: false
    kernel_size: 1
    kernel_size: 1
  }
}
layer {
  name: "_model_layers_7_Add_1"
  type: "Ara2Eltwise"
  bottom: "_model_layers_7_Add"
  bottom: "_model_layers_7_mlp_down_proj_MatMul_ara_inrp"
  top: "_model_layers_7_Add_1"
  base_type: "Eltwise"
  estimator_group: "Eltwise"
  eltwise_param {
    operation: SUM
    broadcast0: 0.0
    broadcast0: 0.0
    broadcast0: 0.0
    broadcast1: 0.0
    broadcast1: 0.0
    broadcast1: 0.0
  }
  isOutput: true
}
layer {
  name: "_model_layers_7_residue_perm_3"
  type: "Ara2Reshape"
  bottom: "_model_layers_7_Add_1"
  top: "_model_layers_7_residue_perm_3"
  base_type: "Reshape"
  estimator_group: "Reshape"
  reshape_param {
    shape {
      dim: 1
      dim: 1
      dim: 4096
      dim: 256
    }
  }
}
layer {
  name: "_model_layers_7_residue_rshp_3"
  type: "Ara2PermuteNnp"
  bottom: "_model_layers_7_residue_perm_3"
  top: "_model_layers_7_residue_rshp_3"
  base_type: "PermuteNnp"
  estimator_group: "PermuteNnp"
  permute_nnp_param {
    order: 0
    order: 1
    order: 3
    order: 2
  }
}



layer {
  name: "_model_layers_8_residue_perm_1"
  type: "Ara2PermuteNnp"
  bottom: "_model_layers_7_residue_rshp_3"
  top: "_model_layers_8_residue_perm_1"
  base_type: "PermuteNnp"
  estimator_group: "PermuteNnp"
  permute_nnp_param {
    order: 0
    order: 1
    order: 3
    order: 2
  }
}
layer {
  name: "_model_layers_8_residue_rshp_1"
  type: "Ara2Reshape"
  bottom: "_model_layers_8_residue_perm_1"
  top: "_model_layers_8_residue_rshp_1"
  base_type: "Reshape"
  estimator_group: "Reshape"
  reshape_param {
    shape {
      dim: 1
      dim: 4096
      dim: 1
      dim: 256
    }
  }
}

layer {
  name: "_model_layers_8_input_layernorm_Mul_1_ara_LayerNorm_0"
  type: "Ara2LayerNorm"
  bottom: "_model_layers_7_residue_rshp_3"
  top: "_model_layers_8_input_layernorm_Mul_1_ara_LayerNorm_0"
  base_type: "LayerNorm"
  estimator_group: "LayerNorm"
  layer_norm_param {
    axis: 3
    eps: 1e-06
    output_mean_var: false
    uses_mean: false
  }
}
layer {
  name: "_model_layers_8_residue_perm_2"
  type: "Ara2PermuteNnp"
  bottom: "_model_layers_8_input_layernorm_Mul_1_ara_LayerNorm_0"
  top: "_model_layers_8_residue_perm_2"
  base_type: "PermuteNnp"
  estimator_group: "PermuteNnp"
  permute_nnp_param {
    order: 0
    order: 1
    order: 3
    order: 2
  }
}
layer {
  name: "_model_layers_8_residue_rshp_2"
  type: "Ara2Reshape"
  bottom: "_model_layers_8_residue_perm_2"
  top: "_model_layers_8_residue_rshp_2"
  base_type: "Reshape"
  estimator_group: "Reshape"
  reshape_param {
    shape {
      dim: 1
      dim: 4096
      dim: 1
      dim: 256
    }
  }
}
layer {
  name: "_model_layers_8_self_attn_q_proj_MatMul"
  type: "Ara2Convolution"
  bottom: "_model_layers_8_residue_rshp_2"
  top: "_model_layers_8_self_attn_q_proj_MatMul"
  base_type: "Convolution"
  estimator_group: "Convolution"
  convolution_param {
    num_output: 4096
    bias_term: false
    kernel_size: 1
    kernel_size: 1
  }
}
layer {
  name: "_model_layers_8_self_attn_q_proj_Add_original_bnorm"
  type: "Ara2BatchNorm"
  bottom: "_model_layers_8_self_attn_q_proj_MatMul"
  top: "_model_layers_8_self_attn_q_proj_Add_original_bnorm"
  base_type: "BatchNorm"
  estimator_group: "BatchNorm"
  batch_norm_param {
    use_global_stats: true
    eps: 0.0
  }
}
layer {
  name: "_model_layers_8_self_attn_q_proj_Add_original"
  type: "Ara2Scale"
  bottom: "_model_layers_8_self_attn_q_proj_Add_original_bnorm"
  top: "_model_layers_8_self_attn_q_proj_Add_original"
  base_type: "Scale"
  estimator_group: "Scale"
  scale_param {
    axis: 1
    bias_term: true
  }
}
layer {
  name: "_model_layers_8_self_attn_Reshape_1"
  type: "Ara2Reshape"
  bottom: "_model_layers_8_self_attn_q_proj_Add_original"
  top: "_model_layers_8_self_attn_Reshape_1"
  base_type: "Reshape"
  estimator_group: "Reshape"
  reshape_param {
    shape {
      dim: 1
      dim: 32
      dim: 128
      dim: 256
    }
  }
}
layer {
  name: "_model_layers_8_self_attn_Add"
  type: "Ara2Eltwise"
  bottom: "_model_layers_8_self_attn_Reshape_1"
  bottom: "position_ids_embedded"
  top: "_model_layers_8_self_attn_Add"
  base_type: "Eltwise"
  estimator_group: "Eltwise"
  eltwise_param {
    operation: ROPE
    broadcast1: 0.0
    broadcast1: 1.0
    broadcast1: 0.5
    broadcast1: 0.0
  }
}
layer {
  name: "_model_layers_8_self_attn_k_proj_MatMul"
  type: "Ara2Convolution"
  bottom: "_model_layers_8_residue_rshp_2"
  top: "_model_layers_8_self_attn_k_proj_MatMul"
  base_type: "Convolution"
  estimator_group: "Convolution"
  convolution_param {
    num_output: 4096
    bias_term: false
    kernel_size: 1
    kernel_size: 1
  }
}
layer {
  name: "_model_layers_8_self_attn_k_proj_Add_original_bnorm"
  type: "Ara2BatchNorm"
  bottom: "_model_layers_8_self_attn_k_proj_MatMul"
  top: "_model_layers_8_self_attn_k_proj_Add_original_bnorm"
  base_type: "BatchNorm"
  estimator_group: "BatchNorm"
  batch_norm_param {
    use_global_stats: true
    eps: 0.0
  }
}
layer {
  name: "_model_layers_8_self_attn_k_proj_Add_original"
  type: "Ara2Scale"
  bottom: "_model_layers_8_self_attn_k_proj_Add_original_bnorm"
  top: "_model_layers_8_self_attn_k_proj_Add_original"
  base_type: "Scale"
  estimator_group: "Scale"
  scale_param {
    axis: 1
    bias_term: true
  }
}
layer {
  name: "_model_layers_8_self_attn_Reshape_3"
  type: "Ara2Reshape"
  bottom: "_model_layers_8_self_attn_k_proj_Add_original"
  top: "_model_layers_8_self_attn_Reshape_3"
  base_type: "Reshape"
  estimator_group: "Reshape"
  reshape_param {
    shape {
      dim: 1
      dim: 32
      dim: 128
      dim: 256
    }
  }
}
layer {
  name: "_model_layers_8_self_attn_Add_1"
  type: "Ara2Eltwise"
  bottom: "_model_layers_8_self_attn_Reshape_3"
  bottom: "position_ids_embedded"
  top: "_model_layers_8_self_attn_Add_1"
  base_type: "Eltwise"
  estimator_group: "Eltwise"
  eltwise_param {
    operation: ROPE
    broadcast1: 0.0
    broadcast1: 1.0
    broadcast1: 0.5
    broadcast1: 0.0
  }
}
layer {
  name: "_model_layers_8_self_attn_1_Reshape_1"
  type: "Ara2Reshape"
  bottom: "_model_layers_8_self_attn_Add_1"
  top: "_model_layers_8_self_attn_1_Reshape_1"
  base_type: "Reshape"
  estimator_group: "Reshape"
  reshape_param {
    shape {
      dim: 1
      dim: 1
      dim: 4096
      dim: 256
    }
  }
}
layer {
  name: "_model_layers_8_k_cache"
  type: "Ara2Permute"
  bottom: "_model_layers_8_self_attn_1_Reshape_1"
  top: "_model_layers_8_k_cache"
  base_type: "Permute"
  estimator_group: "Permute"
  permute_param {
    order: 0
    order: 1
    order: 3
    order: 2
  }
  isKeyOutput: 8
  isOutput: true
}
layer {
  name: "_model_layers_8_self_attn_v_proj_MatMul"
  type: "Ara2Convolution"
  bottom: "_model_layers_8_residue_rshp_2"
  top: "_model_layers_8_self_attn_v_proj_MatMul"
  base_type: "Convolution"
  estimator_group: "Convolution"
  convolution_param {
    num_output: 4096
    bias_term: false
    kernel_size: 1
    kernel_size: 1
  }
}
layer {
  name: "_model_layers_8_self_attn_v_proj_Add_original_bnorm"
  type: "Ara2BatchNorm"
  bottom: "_model_layers_8_self_attn_v_proj_MatMul"
  top: "_model_layers_8_self_attn_v_proj_Add_original_bnorm"
  base_type: "BatchNorm"
  estimator_group: "BatchNorm"
  batch_norm_param {
    use_global_stats: true
    eps: 0.0
  }
}
layer {
  name: "_model_layers_8_self_attn_v_proj_Add_original"
  type: "Ara2Scale"
  bottom: "_model_layers_8_self_attn_v_proj_Add_original_bnorm"
  top: "_model_layers_8_self_attn_v_proj_Add_original"
  base_type: "Scale"
  estimator_group: "Scale"
  scale_param {
    axis: 1
    bias_term: true
  }
}
layer {
  name: "_model_layers_8_self_attn_2_Reshape_1"
  type: "Ara2Reshape"
  bottom: "_model_layers_8_self_attn_v_proj_Add_original"
  top: "_model_layers_8_self_attn_2_Reshape_1"
  base_type: "Reshape"
  estimator_group: "Reshape"
  reshape_param {
    shape {
      dim: 1
      dim: 1
      dim: 4096
      dim: 256
    }
  }
}
layer {
  name: "_model_layers_8_v_cache"
  type: "Ara2Permute"
  bottom: "_model_layers_8_self_attn_2_Reshape_1"
  top: "_model_layers_8_v_cache"
  base_type: "Permute"
  estimator_group: "Permute"
  permute_param {
    order: 0
    order: 1
    order: 3
    order: 2
  }
  isValueOutput: 8
  isOutput: true
}
layer {
  name: "_model_layers_8_self_attn_Reshape_2"
  type: "Ara2Reshape"
  bottom: "_model_layers_8_self_attn_v_proj_Add_original"
  top: "_model_layers_8_self_attn_Reshape_2"
  base_type: "Reshape"
  estimator_group: "Reshape"
  reshape_param {
    shape {
      dim: 1
      dim: 32
      dim: 128
      dim: 256
    }
  }
}
layer {
  name: "_model_layers_8_self_attn_Transpose_2"
  type: "Ara2PermuteNnp"
  bottom: "_model_layers_8_self_attn_Reshape_2"
  top: "_model_layers_8_self_attn_Transpose_2"
  base_type: "PermuteNnp"
  estimator_group: "PermuteNnp"
  permute_nnp_param {
    order: 0
    order: 1
    order: 3
    order: 2
  }
}
layer {
  name: "_model_layers_8_self_attn_MatMul"
  type: "Ara2BatchDot"
  bottom: "_model_layers_8_self_attn_Add_1"
  bottom: "_model_layers_8_self_attn_Add"
  top: "_model_layers_8_self_attn_MatMul"
  base_type: "BatchDot"
  estimator_group: "BatchDot"
  batch_dot_param {
    transpose_a: 1
    transpose_b: 0
    multiplier: 0.08838834916
  }
}
layer {
  name: "_model_layers_8_self_attn_Softmax"
  type: "Ara2AttentionSoftmax"
  bottom: "_model_layers_8_self_attn_MatMul"
  bottom: "valid_till"
  top: "_model_layers_8_self_attn_Softmax"
  base_type: "AttentionSoftmax"
  estimator_group: "AttentionSoftmax"
  attentionsoftmax_param {
    axis: 2
  }
}
layer {
  name: "_model_layers_8_self_attn_MatMul_1"
  type: "Ara2BatchDot"
  bottom: "_model_layers_8_self_attn_Transpose_2"
  bottom: "_model_layers_8_self_attn_Softmax"
  top: "_model_layers_8_self_attn_MatMul_1"
  base_type: "BatchDot"
  estimator_group: "BatchDot"
  batch_dot_param {
    transpose_a: 1
    transpose_b: 0
  }
}
layer {
  name: "_model_layers_8_self_attn_o_proj_MatMul_ara_reshape_0"
  type: "Ara2Reshape"
  bottom: "_model_layers_8_self_attn_MatMul_1"
  top: "_model_layers_8_self_attn_o_proj_MatMul_ara_reshape_0"
  base_type: "Reshape"
  estimator_group: "Reshape"
  reshape_param {
    shape {
      dim: 1
      dim: 4096
      dim: 1
      dim: 256
    }
  }
}
layer {
  name: "_model_layers_8_self_attn_o_proj_MatMul_ara_inrp"
  type: "Ara2Convolution"
  bottom: "_model_layers_8_self_attn_o_proj_MatMul_ara_reshape_0"
  top: "_model_layers_8_self_attn_o_proj_MatMul_ara_inrp"
  base_type: "Convolution"
  estimator_group: "Convolution"
  convolution_param {
    num_output: 4096
    bias_term: false
    kernel_size: 1
    kernel_size: 1
  }
}
layer {
  name: "_model_layers_8_Add"
  type: "Ara2Eltwise"
  bottom: "_model_layers_8_self_attn_o_proj_MatMul_ara_inrp"
  bottom: "_model_layers_8_residue_rshp_1"
  top: "_model_layers_8_Add"
  base_type: "Eltwise"
  estimator_group: "Eltwise"
  eltwise_param {
    operation: SUM
    broadcast0: 0.0
    broadcast0: 0.0
    broadcast0: 0.0
    broadcast1: 0.0
    broadcast1: 0.0
    broadcast1: 0.0
  }
}
layer {
  name: "_model_layers_8_rshp_5_Reshape"
  type: "Ara2Reshape"
  bottom: "_model_layers_8_Add"
  top: "_model_layers_8_rshp_5_Reshape"
  base_type: "Reshape"
  estimator_group: "Reshape"
  reshape_param {
    shape {
      dim: 1
      dim: 1
      dim: 4096
      dim: 256
    }
  }
}
layer {
  name: "_model_layers_8_prm_5_PermuteNnp"
  type: "Ara2PermuteNnp"
  bottom: "_model_layers_8_rshp_5_Reshape"
  top: "_model_layers_8_prm_5_PermuteNnp"
  base_type: "PermuteNnp"
  estimator_group: "PermuteNnp"
  permute_nnp_param {
    order: 0
    order: 1
    order: 3
    order: 2
  }
}
layer {
  name: "_model_layers_8_post_attention_layernorm_Mul_1_ara_LayerNorm_0"
  type: "Ara2LayerNorm"
  bottom: "_model_layers_8_prm_5_PermuteNnp"
  top: "_model_layers_8_post_attention_layernorm_Mul_1_ara_LayerNorm_0"
  base_type: "LayerNorm"
  estimator_group: "LayerNorm"
  layer_norm_param {
    axis: 3
    eps: 1e-06
    output_mean_var: false
    uses_mean: false
  }
}
layer {
  name: "_model_layers_8_prm_6_PermuteNnp"
  type: "Ara2PermuteNnp"
  bottom: "_model_layers_8_post_attention_layernorm_Mul_1_ara_LayerNorm_0"
  top: "_model_layers_8_prm_6_PermuteNnp"
  base_type: "PermuteNnp"
  estimator_group: "PermuteNnp"
  permute_nnp_param {
    order: 0
    order: 1
    order: 3
    order: 2
  }
}
layer {
  name: "_model_layers_8_rshp_6_Reshape"
  type: "Ara2Reshape"
  bottom: "_model_layers_8_prm_6_PermuteNnp"
  top: "_model_layers_8_rshp_6_Reshape"
  base_type: "Reshape"
  estimator_group: "Reshape"
  reshape_param {
    shape {
      dim: 1
      dim: 4096
      dim: 1
      dim: 256
    }
  }
}
layer {
  name: "_model_layers_8_mlp_up_proj_MatMul_ara_inrp"
  type: "Ara2Convolution"
  bottom: "_model_layers_8_rshp_6_Reshape"
  top: "_model_layers_8_mlp_up_proj_MatMul_ara_inrp"
  base_type: "Convolution"
  estimator_group: "Convolution"
  convolution_param {
    num_output: 11008
    bias_term: false
    kernel_size: 1
    kernel_size: 1
  }
}
layer {
  name: "_model_layers_8_mlp_gate_proj_MatMul_ara_inrp"
  type: "Ara2Convolution"
  bottom: "_model_layers_8_rshp_6_Reshape"
  top: "_model_layers_8_mlp_gate_proj_MatMul_ara_inrp"
  base_type: "Convolution"
  estimator_group: "Convolution"
  convolution_param {
    num_output: 11008
    bias_term: false
    kernel_size: 1
    kernel_size: 1
  }
}
layer {
  name: "_model_layers_8_mlp_act_fn_Mul"
  type: "Ara2Swish"
  bottom: "_model_layers_8_mlp_gate_proj_MatMul_ara_inrp"
  top: "_model_layers_8_mlp_act_fn_Mul"
  base_type: "Swish"
  estimator_group: "activation"
}
layer {
  name: "_model_layers_8_mlp_Mul"
  type: "Ara2Eltwise"
  bottom: "_model_layers_8_mlp_up_proj_MatMul_ara_inrp"
  bottom: "_model_layers_8_mlp_act_fn_Mul"
  top: "_model_layers_8_mlp_Mul"
  base_type: "Eltwise"
  estimator_group: "Eltwise"
  eltwise_param {
    operation: PROD
    broadcast0: 0.0
    broadcast0: 0.0
    broadcast0: 0.0
    broadcast1: 0.0
    broadcast1: 0.0
    broadcast1: 0.0
  }
}
layer {
  name: "_model_layers_8_mlp_down_proj_MatMul_ara_inrp"
  type: "Ara2Convolution"
  bottom: "_model_layers_8_mlp_Mul"
  top: "_model_layers_8_mlp_down_proj_MatMul_ara_inrp"
  base_type: "Convolution"
  estimator_group: "Convolution"
  convolution_param {
    num_output: 4096
    bias_term: false
    kernel_size: 1
    kernel_size: 1
  }
}
layer {
  name: "_model_layers_8_Add_1"
  type: "Ara2Eltwise"
  bottom: "_model_layers_8_Add"
  bottom: "_model_layers_8_mlp_down_proj_MatMul_ara_inrp"
  top: "_model_layers_8_Add_1"
  base_type: "Eltwise"
  estimator_group: "Eltwise"
  eltwise_param {
    operation: SUM
    broadcast0: 0.0
    broadcast0: 0.0
    broadcast0: 0.0
    broadcast1: 0.0
    broadcast1: 0.0
    broadcast1: 0.0
  }
  isOutput: true
}
layer {
  name: "_model_layers_8_residue_perm_3"
  type: "Ara2Reshape"
  bottom: "_model_layers_8_Add_1"
  top: "_model_layers_8_residue_perm_3"
  base_type: "Reshape"
  estimator_group: "Reshape"
  reshape_param {
    shape {
      dim: 1
      dim: 1
      dim: 4096
      dim: 256
    }
  }
}
layer {
  name: "_model_layers_8_residue_rshp_3"
  type: "Ara2PermuteNnp"
  bottom: "_model_layers_8_residue_perm_3"
  top: "_model_layers_8_residue_rshp_3"
  base_type: "PermuteNnp"
  estimator_group: "PermuteNnp"
  permute_nnp_param {
    order: 0
    order: 1
    order: 3
    order: 2
  }
}



layer {
  name: "_model_layers_9_residue_perm_1"
  type: "Ara2PermuteNnp"
  bottom: "_model_layers_8_residue_rshp_3"
  top: "_model_layers_9_residue_perm_1"
  base_type: "PermuteNnp"
  estimator_group: "PermuteNnp"
  permute_nnp_param {
    order: 0
    order: 1
    order: 3
    order: 2
  }
}
layer {
  name: "_model_layers_9_residue_rshp_1"
  type: "Ara2Reshape"
  bottom: "_model_layers_9_residue_perm_1"
  top: "_model_layers_9_residue_rshp_1"
  base_type: "Reshape"
  estimator_group: "Reshape"
  reshape_param {
    shape {
      dim: 1
      dim: 4096
      dim: 1
      dim: 256
    }
  }
}

layer {
  name: "_model_layers_9_input_layernorm_Mul_1_ara_LayerNorm_0"
  type: "Ara2LayerNorm"
  bottom: "_model_layers_8_residue_rshp_3"
  top: "_model_layers_9_input_layernorm_Mul_1_ara_LayerNorm_0"
  base_type: "LayerNorm"
  estimator_group: "LayerNorm"
  layer_norm_param {
    axis: 3
    eps: 1e-06
    output_mean_var: false
    uses_mean: false
  }
}
layer {
  name: "_model_layers_9_residue_perm_2"
  type: "Ara2PermuteNnp"
  bottom: "_model_layers_9_input_layernorm_Mul_1_ara_LayerNorm_0"
  top: "_model_layers_9_residue_perm_2"
  base_type: "PermuteNnp"
  estimator_group: "PermuteNnp"
  permute_nnp_param {
    order: 0
    order: 1
    order: 3
    order: 2
  }
}
layer {
  name: "_model_layers_9_residue_rshp_2"
  type: "Ara2Reshape"
  bottom: "_model_layers_9_residue_perm_2"
  top: "_model_layers_9_residue_rshp_2"
  base_type: "Reshape"
  estimator_group: "Reshape"
  reshape_param {
    shape {
      dim: 1
      dim: 4096
      dim: 1
      dim: 256
    }
  }
}
layer {
  name: "_model_layers_9_self_attn_q_proj_MatMul"
  type: "Ara2Convolution"
  bottom: "_model_layers_9_residue_rshp_2"
  top: "_model_layers_9_self_attn_q_proj_MatMul"
  base_type: "Convolution"
  estimator_group: "Convolution"
  convolution_param {
    num_output: 4096
    bias_term: false
    kernel_size: 1
    kernel_size: 1
  }
}
layer {
  name: "_model_layers_9_self_attn_q_proj_Add_original_bnorm"
  type: "Ara2BatchNorm"
  bottom: "_model_layers_9_self_attn_q_proj_MatMul"
  top: "_model_layers_9_self_attn_q_proj_Add_original_bnorm"
  base_type: "BatchNorm"
  estimator_group: "BatchNorm"
  batch_norm_param {
    use_global_stats: true
    eps: 0.0
  }
}
layer {
  name: "_model_layers_9_self_attn_q_proj_Add_original"
  type: "Ara2Scale"
  bottom: "_model_layers_9_self_attn_q_proj_Add_original_bnorm"
  top: "_model_layers_9_self_attn_q_proj_Add_original"
  base_type: "Scale"
  estimator_group: "Scale"
  scale_param {
    axis: 1
    bias_term: true
  }
}
layer {
  name: "_model_layers_9_self_attn_Reshape_1"
  type: "Ara2Reshape"
  bottom: "_model_layers_9_self_attn_q_proj_Add_original"
  top: "_model_layers_9_self_attn_Reshape_1"
  base_type: "Reshape"
  estimator_group: "Reshape"
  reshape_param {
    shape {
      dim: 1
      dim: 32
      dim: 128
      dim: 256
    }
  }
}
layer {
  name: "_model_layers_9_self_attn_Add"
  type: "Ara2Eltwise"
  bottom: "_model_layers_9_self_attn_Reshape_1"
  bottom: "position_ids_embedded"
  top: "_model_layers_9_self_attn_Add"
  base_type: "Eltwise"
  estimator_group: "Eltwise"
  eltwise_param {
    operation: ROPE
    broadcast1: 0.0
    broadcast1: 1.0
    broadcast1: 0.5
    broadcast1: 0.0
  }
}
layer {
  name: "_model_layers_9_self_attn_k_proj_MatMul"
  type: "Ara2Convolution"
  bottom: "_model_layers_9_residue_rshp_2"
  top: "_model_layers_9_self_attn_k_proj_MatMul"
  base_type: "Convolution"
  estimator_group: "Convolution"
  convolution_param {
    num_output: 4096
    bias_term: false
    kernel_size: 1
    kernel_size: 1
  }
}
layer {
  name: "_model_layers_9_self_attn_k_proj_Add_original_bnorm"
  type: "Ara2BatchNorm"
  bottom: "_model_layers_9_self_attn_k_proj_MatMul"
  top: "_model_layers_9_self_attn_k_proj_Add_original_bnorm"
  base_type: "BatchNorm"
  estimator_group: "BatchNorm"
  batch_norm_param {
    use_global_stats: true
    eps: 0.0
  }
}
layer {
  name: "_model_layers_9_self_attn_k_proj_Add_original"
  type: "Ara2Scale"
  bottom: "_model_layers_9_self_attn_k_proj_Add_original_bnorm"
  top: "_model_layers_9_self_attn_k_proj_Add_original"
  base_type: "Scale"
  estimator_group: "Scale"
  scale_param {
    axis: 1
    bias_term: true
  }
}
layer {
  name: "_model_layers_9_self_attn_Reshape_3"
  type: "Ara2Reshape"
  bottom: "_model_layers_9_self_attn_k_proj_Add_original"
  top: "_model_layers_9_self_attn_Reshape_3"
  base_type: "Reshape"
  estimator_group: "Reshape"
  reshape_param {
    shape {
      dim: 1
      dim: 32
      dim: 128
      dim: 256
    }
  }
}
layer {
  name: "_model_layers_9_self_attn_Add_1"
  type: "Ara2Eltwise"
  bottom: "_model_layers_9_self_attn_Reshape_3"
  bottom: "position_ids_embedded"
  top: "_model_layers_9_self_attn_Add_1"
  base_type: "Eltwise"
  estimator_group: "Eltwise"
  eltwise_param {
    operation: ROPE
    broadcast1: 0.0
    broadcast1: 1.0
    broadcast1: 0.5
    broadcast1: 0.0
  }
}
layer {
  name: "_model_layers_9_self_attn_1_Reshape_1"
  type: "Ara2Reshape"
  bottom: "_model_layers_9_self_attn_Add_1"
  top: "_model_layers_9_self_attn_1_Reshape_1"
  base_type: "Reshape"
  estimator_group: "Reshape"
  reshape_param {
    shape {
      dim: 1
      dim: 1
      dim: 4096
      dim: 256
    }
  }
}
layer {
  name: "_model_layers_9_k_cache"
  type: "Ara2Permute"
  bottom: "_model_layers_9_self_attn_1_Reshape_1"
  top: "_model_layers_9_k_cache"
  base_type: "Permute"
  estimator_group: "Permute"
  permute_param {
    order: 0
    order: 1
    order: 3
    order: 2
  }
  isKeyOutput: 9
  isOutput: true
}
layer {
  name: "_model_layers_9_self_attn_v_proj_MatMul"
  type: "Ara2Convolution"
  bottom: "_model_layers_9_residue_rshp_2"
  top: "_model_layers_9_self_attn_v_proj_MatMul"
  base_type: "Convolution"
  estimator_group: "Convolution"
  convolution_param {
    num_output: 4096
    bias_term: false
    kernel_size: 1
    kernel_size: 1
  }
}
layer {
  name: "_model_layers_9_self_attn_v_proj_Add_original_bnorm"
  type: "Ara2BatchNorm"
  bottom: "_model_layers_9_self_attn_v_proj_MatMul"
  top: "_model_layers_9_self_attn_v_proj_Add_original_bnorm"
  base_type: "BatchNorm"
  estimator_group: "BatchNorm"
  batch_norm_param {
    use_global_stats: true
    eps: 0.0
  }
}
layer {
  name: "_model_layers_9_self_attn_v_proj_Add_original"
  type: "Ara2Scale"
  bottom: "_model_layers_9_self_attn_v_proj_Add_original_bnorm"
  top: "_model_layers_9_self_attn_v_proj_Add_original"
  base_type: "Scale"
  estimator_group: "Scale"
  scale_param {
    axis: 1
    bias_term: true
  }
}
layer {
  name: "_model_layers_9_self_attn_2_Reshape_1"
  type: "Ara2Reshape"
  bottom: "_model_layers_9_self_attn_v_proj_Add_original"
  top: "_model_layers_9_self_attn_2_Reshape_1"
  base_type: "Reshape"
  estimator_group: "Reshape"
  reshape_param {
    shape {
      dim: 1
      dim: 1
      dim: 4096
      dim: 256
    }
  }
}
layer {
  name: "_model_layers_9_v_cache"
  type: "Ara2Permute"
  bottom: "_model_layers_9_self_attn_2_Reshape_1"
  top: "_model_layers_9_v_cache"
  base_type: "Permute"
  estimator_group: "Permute"
  permute_param {
    order: 0
    order: 1
    order: 3
    order: 2
  }
  isValueOutput: 9
  isOutput: true
}
layer {
  name: "_model_layers_9_self_attn_Reshape_2"
  type: "Ara2Reshape"
  bottom: "_model_layers_9_self_attn_v_proj_Add_original"
  top: "_model_layers_9_self_attn_Reshape_2"
  base_type: "Reshape"
  estimator_group: "Reshape"
  reshape_param {
    shape {
      dim: 1
      dim: 32
      dim: 128
      dim: 256
    }
  }
}
layer {
  name: "_model_layers_9_self_attn_Transpose_2"
  type: "Ara2PermuteNnp"
  bottom: "_model_layers_9_self_attn_Reshape_2"
  top: "_model_layers_9_self_attn_Transpose_2"
  base_type: "PermuteNnp"
  estimator_group: "PermuteNnp"
  permute_nnp_param {
    order: 0
    order: 1
    order: 3
    order: 2
  }
}
layer {
  name: "_model_layers_9_self_attn_MatMul"
  type: "Ara2BatchDot"
  bottom: "_model_layers_9_self_attn_Add_1"
  bottom: "_model_layers_9_self_attn_Add"
  top: "_model_layers_9_self_attn_MatMul"
  base_type: "BatchDot"
  estimator_group: "BatchDot"
  batch_dot_param {
    transpose_a: 1
    transpose_b: 0
    multiplier: 0.08838834916
  }
}
layer {
  name: "_model_layers_9_self_attn_Softmax"
  type: "Ara2AttentionSoftmax"
  bottom: "_model_layers_9_self_attn_MatMul"
  bottom: "valid_till"
  top: "_model_layers_9_self_attn_Softmax"
  base_type: "AttentionSoftmax"
  estimator_group: "AttentionSoftmax"
  attentionsoftmax_param {
    axis: 2
  }
}
layer {
  name: "_model_layers_9_self_attn_MatMul_1"
  type: "Ara2BatchDot"
  bottom: "_model_layers_9_self_attn_Transpose_2"
  bottom: "_model_layers_9_self_attn_Softmax"
  top: "_model_layers_9_self_attn_MatMul_1"
  base_type: "BatchDot"
  estimator_group: "BatchDot"
  batch_dot_param {
    transpose_a: 1
    transpose_b: 0
  }
}
layer {
  name: "_model_layers_9_self_attn_o_proj_MatMul_ara_reshape_0"
  type: "Ara2Reshape"
  bottom: "_model_layers_9_self_attn_MatMul_1"
  top: "_model_layers_9_self_attn_o_proj_MatMul_ara_reshape_0"
  base_type: "Reshape"
  estimator_group: "Reshape"
  reshape_param {
    shape {
      dim: 1
      dim: 4096
      dim: 1
      dim: 256
    }
  }
}
layer {
  name: "_model_layers_9_self_attn_o_proj_MatMul_ara_inrp"
  type: "Ara2Convolution"
  bottom: "_model_layers_9_self_attn_o_proj_MatMul_ara_reshape_0"
  top: "_model_layers_9_self_attn_o_proj_MatMul_ara_inrp"
  base_type: "Convolution"
  estimator_group: "Convolution"
  convolution_param {
    num_output: 4096
    bias_term: false
    kernel_size: 1
    kernel_size: 1
  }
}
layer {
  name: "_model_layers_9_Add"
  type: "Ara2Eltwise"
  bottom: "_model_layers_9_self_attn_o_proj_MatMul_ara_inrp"
  bottom: "_model_layers_9_residue_rshp_1"
  top: "_model_layers_9_Add"
  base_type: "Eltwise"
  estimator_group: "Eltwise"
  eltwise_param {
    operation: SUM
    broadcast0: 0.0
    broadcast0: 0.0
    broadcast0: 0.0
    broadcast1: 0.0
    broadcast1: 0.0
    broadcast1: 0.0
  }
}
layer {
  name: "_model_layers_9_rshp_5_Reshape"
  type: "Ara2Reshape"
  bottom: "_model_layers_9_Add"
  top: "_model_layers_9_rshp_5_Reshape"
  base_type: "Reshape"
  estimator_group: "Reshape"
  reshape_param {
    shape {
      dim: 1
      dim: 1
      dim: 4096
      dim: 256
    }
  }
}
layer {
  name: "_model_layers_9_prm_5_PermuteNnp"
  type: "Ara2PermuteNnp"
  bottom: "_model_layers_9_rshp_5_Reshape"
  top: "_model_layers_9_prm_5_PermuteNnp"
  base_type: "PermuteNnp"
  estimator_group: "PermuteNnp"
  permute_nnp_param {
    order: 0
    order: 1
    order: 3
    order: 2
  }
}
layer {
  name: "_model_layers_9_post_attention_layernorm_Mul_1_ara_LayerNorm_0"
  type: "Ara2LayerNorm"
  bottom: "_model_layers_9_prm_5_PermuteNnp"
  top: "_model_layers_9_post_attention_layernorm_Mul_1_ara_LayerNorm_0"
  base_type: "LayerNorm"
  estimator_group: "LayerNorm"
  layer_norm_param {
    axis: 3
    eps: 1e-06
    output_mean_var: false
    uses_mean: false
  }
}
layer {
  name: "_model_layers_9_prm_6_PermuteNnp"
  type: "Ara2PermuteNnp"
  bottom: "_model_layers_9_post_attention_layernorm_Mul_1_ara_LayerNorm_0"
  top: "_model_layers_9_prm_6_PermuteNnp"
  base_type: "PermuteNnp"
  estimator_group: "PermuteNnp"
  permute_nnp_param {
    order: 0
    order: 1
    order: 3
    order: 2
  }
}
layer {
  name: "_model_layers_9_rshp_6_Reshape"
  type: "Ara2Reshape"
  bottom: "_model_layers_9_prm_6_PermuteNnp"
  top: "_model_layers_9_rshp_6_Reshape"
  base_type: "Reshape"
  estimator_group: "Reshape"
  reshape_param {
    shape {
      dim: 1
      dim: 4096
      dim: 1
      dim: 256
    }
  }
}
layer {
  name: "_model_layers_9_mlp_up_proj_MatMul_ara_inrp"
  type: "Ara2Convolution"
  bottom: "_model_layers_9_rshp_6_Reshape"
  top: "_model_layers_9_mlp_up_proj_MatMul_ara_inrp"
  base_type: "Convolution"
  estimator_group: "Convolution"
  convolution_param {
    num_output: 11008
    bias_term: false
    kernel_size: 1
    kernel_size: 1
  }
}
layer {
  name: "_model_layers_9_mlp_gate_proj_MatMul_ara_inrp"
  type: "Ara2Convolution"
  bottom: "_model_layers_9_rshp_6_Reshape"
  top: "_model_layers_9_mlp_gate_proj_MatMul_ara_inrp"
  base_type: "Convolution"
  estimator_group: "Convolution"
  convolution_param {
    num_output: 11008
    bias_term: false
    kernel_size: 1
    kernel_size: 1
  }
}
layer {
  name: "_model_layers_9_mlp_act_fn_Mul"
  type: "Ara2Swish"
  bottom: "_model_layers_9_mlp_gate_proj_MatMul_ara_inrp"
  top: "_model_layers_9_mlp_act_fn_Mul"
  base_type: "Swish"
  estimator_group: "activation"
}
layer {
  name: "_model_layers_9_mlp_Mul"
  type: "Ara2Eltwise"
  bottom: "_model_layers_9_mlp_up_proj_MatMul_ara_inrp"
  bottom: "_model_layers_9_mlp_act_fn_Mul"
  top: "_model_layers_9_mlp_Mul"
  base_type: "Eltwise"
  estimator_group: "Eltwise"
  eltwise_param {
    operation: PROD
    broadcast0: 0.0
    broadcast0: 0.0
    broadcast0: 0.0
    broadcast1: 0.0
    broadcast1: 0.0
    broadcast1: 0.0
  }
}
layer {
  name: "_model_layers_9_mlp_down_proj_MatMul_ara_inrp"
  type: "Ara2Convolution"
  bottom: "_model_layers_9_mlp_Mul"
  top: "_model_layers_9_mlp_down_proj_MatMul_ara_inrp"
  base_type: "Convolution"
  estimator_group: "Convolution"
  convolution_param {
    num_output: 4096
    bias_term: false
    kernel_size: 1
    kernel_size: 1
  }
}
layer {
  name: "_model_layers_9_Add_1"
  type: "Ara2Eltwise"
  bottom: "_model_layers_9_Add"
  bottom: "_model_layers_9_mlp_down_proj_MatMul_ara_inrp"
  top: "_model_layers_9_Add_1"
  base_type: "Eltwise"
  estimator_group: "Eltwise"
  eltwise_param {
    operation: SUM
    broadcast0: 0.0
    broadcast0: 0.0
    broadcast0: 0.0
    broadcast1: 0.0
    broadcast1: 0.0
    broadcast1: 0.0
  }
  isOutput: true
}
layer {
  name: "_model_layers_9_residue_perm_3"
  type: "Ara2Reshape"
  bottom: "_model_layers_9_Add_1"
  top: "_model_layers_9_residue_perm_3"
  base_type: "Reshape"
  estimator_group: "Reshape"
  reshape_param {
    shape {
      dim: 1
      dim: 1
      dim: 4096
      dim: 256
    }
  }
}
layer {
  name: "_model_layers_9_residue_rshp_3"
  type: "Ara2PermuteNnp"
  bottom: "_model_layers_9_residue_perm_3"
  top: "_model_layers_9_residue_rshp_3"
  base_type: "PermuteNnp"
  estimator_group: "PermuteNnp"
  permute_nnp_param {
    order: 0
    order: 1
    order: 3
    order: 2
  }
}



layer {
  name: "_model_layers_10_residue_perm_1"
  type: "Ara2PermuteNnp"
  bottom: "_model_layers_9_residue_rshp_3"
  top: "_model_layers_10_residue_perm_1"
  base_type: "PermuteNnp"
  estimator_group: "PermuteNnp"
  permute_nnp_param {
    order: 0
    order: 1
    order: 3
    order: 2
  }
}
layer {
  name: "_model_layers_10_residue_rshp_1"
  type: "Ara2Reshape"
  bottom: "_model_layers_10_residue_perm_1"
  top: "_model_layers_10_residue_rshp_1"
  base_type: "Reshape"
  estimator_group: "Reshape"
  reshape_param {
    shape {
      dim: 1
      dim: 4096
      dim: 1
      dim: 256
    }
  }
}

layer {
  name: "_model_layers_10_input_layernorm_Mul_1_ara_LayerNorm_0"
  type: "Ara2LayerNorm"
  bottom: "_model_layers_9_residue_rshp_3"
  top: "_model_layers_10_input_layernorm_Mul_1_ara_LayerNorm_0"
  base_type: "LayerNorm"
  estimator_group: "LayerNorm"
  layer_norm_param {
    axis: 3
    eps: 1e-06
    output_mean_var: false
    uses_mean: false
  }
}
layer {
  name: "_model_layers_10_residue_perm_2"
  type: "Ara2PermuteNnp"
  bottom: "_model_layers_10_input_layernorm_Mul_1_ara_LayerNorm_0"
  top: "_model_layers_10_residue_perm_2"
  base_type: "PermuteNnp"
  estimator_group: "PermuteNnp"
  permute_nnp_param {
    order: 0
    order: 1
    order: 3
    order: 2
  }
}
layer {
  name: "_model_layers_10_residue_rshp_2"
  type: "Ara2Reshape"
  bottom: "_model_layers_10_residue_perm_2"
  top: "_model_layers_10_residue_rshp_2"
  base_type: "Reshape"
  estimator_group: "Reshape"
  reshape_param {
    shape {
      dim: 1
      dim: 4096
      dim: 1
      dim: 256
    }
  }
}
layer {
  name: "_model_layers_10_self_attn_q_proj_MatMul"
  type: "Ara2Convolution"
  bottom: "_model_layers_10_residue_rshp_2"
  top: "_model_layers_10_self_attn_q_proj_MatMul"
  base_type: "Convolution"
  estimator_group: "Convolution"
  convolution_param {
    num_output: 4096
    bias_term: false
    kernel_size: 1
    kernel_size: 1
  }
}
layer {
  name: "_model_layers_10_self_attn_q_proj_Add_original_bnorm"
  type: "Ara2BatchNorm"
  bottom: "_model_layers_10_self_attn_q_proj_MatMul"
  top: "_model_layers_10_self_attn_q_proj_Add_original_bnorm"
  base_type: "BatchNorm"
  estimator_group: "BatchNorm"
  batch_norm_param {
    use_global_stats: true
    eps: 0.0
  }
}
layer {
  name: "_model_layers_10_self_attn_q_proj_Add_original"
  type: "Ara2Scale"
  bottom: "_model_layers_10_self_attn_q_proj_Add_original_bnorm"
  top: "_model_layers_10_self_attn_q_proj_Add_original"
  base_type: "Scale"
  estimator_group: "Scale"
  scale_param {
    axis: 1
    bias_term: true
  }
}
layer {
  name: "_model_layers_10_self_attn_Reshape_1"
  type: "Ara2Reshape"
  bottom: "_model_layers_10_self_attn_q_proj_Add_original"
  top: "_model_layers_10_self_attn_Reshape_1"
  base_type: "Reshape"
  estimator_group: "Reshape"
  reshape_param {
    shape {
      dim: 1
      dim: 32
      dim: 128
      dim: 256
    }
  }
}
layer {
  name: "_model_layers_10_self_attn_Add"
  type: "Ara2Eltwise"
  bottom: "_model_layers_10_self_attn_Reshape_1"
  bottom: "position_ids_embedded"
  top: "_model_layers_10_self_attn_Add"
  base_type: "Eltwise"
  estimator_group: "Eltwise"
  eltwise_param {
    operation: ROPE
    broadcast1: 0.0
    broadcast1: 1.0
    broadcast1: 0.5
    broadcast1: 0.0
  }
}
layer {
  name: "_model_layers_10_self_attn_k_proj_MatMul"
  type: "Ara2Convolution"
  bottom: "_model_layers_10_residue_rshp_2"
  top: "_model_layers_10_self_attn_k_proj_MatMul"
  base_type: "Convolution"
  estimator_group: "Convolution"
  convolution_param {
    num_output: 4096
    bias_term: false
    kernel_size: 1
    kernel_size: 1
  }
}
layer {
  name: "_model_layers_10_self_attn_k_proj_Add_original_bnorm"
  type: "Ara2BatchNorm"
  bottom: "_model_layers_10_self_attn_k_proj_MatMul"
  top: "_model_layers_10_self_attn_k_proj_Add_original_bnorm"
  base_type: "BatchNorm"
  estimator_group: "BatchNorm"
  batch_norm_param {
    use_global_stats: true
    eps: 0.0
  }
}
layer {
  name: "_model_layers_10_self_attn_k_proj_Add_original"
  type: "Ara2Scale"
  bottom: "_model_layers_10_self_attn_k_proj_Add_original_bnorm"
  top: "_model_layers_10_self_attn_k_proj_Add_original"
  base_type: "Scale"
  estimator_group: "Scale"
  scale_param {
    axis: 1
    bias_term: true
  }
}
layer {
  name: "_model_layers_10_self_attn_Reshape_3"
  type: "Ara2Reshape"
  bottom: "_model_layers_10_self_attn_k_proj_Add_original"
  top: "_model_layers_10_self_attn_Reshape_3"
  base_type: "Reshape"
  estimator_group: "Reshape"
  reshape_param {
    shape {
      dim: 1
      dim: 32
      dim: 128
      dim: 256
    }
  }
}
layer {
  name: "_model_layers_10_self_attn_Add_1"
  type: "Ara2Eltwise"
  bottom: "_model_layers_10_self_attn_Reshape_3"
  bottom: "position_ids_embedded"
  top: "_model_layers_10_self_attn_Add_1"
  base_type: "Eltwise"
  estimator_group: "Eltwise"
  eltwise_param {
    operation: ROPE
    broadcast1: 0.0
    broadcast1: 1.0
    broadcast1: 0.5
    broadcast1: 0.0
  }
}
layer {
  name: "_model_layers_10_self_attn_1_Reshape_1"
  type: "Ara2Reshape"
  bottom: "_model_layers_10_self_attn_Add_1"
  top: "_model_layers_10_self_attn_1_Reshape_1"
  base_type: "Reshape"
  estimator_group: "Reshape"
  reshape_param {
    shape {
      dim: 1
      dim: 1
      dim: 4096
      dim: 256
    }
  }
}
layer {
  name: "_model_layers_10_k_cache"
  type: "Ara2Permute"
  bottom: "_model_layers_10_self_attn_1_Reshape_1"
  top: "_model_layers_10_k_cache"
  base_type: "Permute"
  estimator_group: "Permute"
  permute_param {
    order: 0
    order: 1
    order: 3
    order: 2
  }
  isKeyOutput: 10
  isOutput: true
}
layer {
  name: "_model_layers_10_self_attn_v_proj_MatMul"
  type: "Ara2Convolution"
  bottom: "_model_layers_10_residue_rshp_2"
  top: "_model_layers_10_self_attn_v_proj_MatMul"
  base_type: "Convolution"
  estimator_group: "Convolution"
  convolution_param {
    num_output: 4096
    bias_term: false
    kernel_size: 1
    kernel_size: 1
  }
}
layer {
  name: "_model_layers_10_self_attn_v_proj_Add_original_bnorm"
  type: "Ara2BatchNorm"
  bottom: "_model_layers_10_self_attn_v_proj_MatMul"
  top: "_model_layers_10_self_attn_v_proj_Add_original_bnorm"
  base_type: "BatchNorm"
  estimator_group: "BatchNorm"
  batch_norm_param {
    use_global_stats: true
    eps: 0.0
  }
}
layer {
…
    transpose_b: 0
  }
}
layer {
  name: "_model_layers_28_self_attn_o_proj_MatMul_ara_reshape_0"
  type: "Ara2Reshape"
  bottom: "_model_layers_28_self_attn_MatMul_1"
  top: "_model_layers_28_self_attn_o_proj_MatMul_ara_reshape_0"
  base_type: "Reshape"
  estimator_group: "Reshape"
  reshape_param {
    shape {
      dim: 1
      dim: 4096
      dim: 1
      dim: 256
    }
  }
}
layer {
  name: "_model_layers_28_self_attn_o_proj_MatMul_ara_inrp"
  type: "Ara2Convolution"
  bottom: "_model_layers_28_self_attn_o_proj_MatMul_ara_reshape_0"
  top: "_model_layers_28_self_attn_o_proj_MatMul_ara_inrp"
  base_type: "Convolution"
  estimator_group: "Convolution"
  convolution_param {
    num_output: 4096
    bias_term: false
    kernel_size: 1
    kernel_size: 1
  }
}
layer {
  name: "_model_layers_28_Add"
  type: "Ara2Eltwise"
  bottom: "_model_layers_28_self_attn_o_proj_MatMul_ara_inrp"
  bottom: "_model_layers_28_residue_rshp_1"
  top: "_model_layers_28_Add"
  base_type: "Eltwise"
  estimator_group: "Eltwise"
  eltwise_param {
    operation: SUM
    broadcast0: 0.0
    broadcast0: 0.0
    broadcast0: 0.0
    broadcast1: 0.0
    broadcast1: 0.0
    broadcast1: 0.0
  }
}
layer {
  name: "_model_layers_28_rshp_5_Reshape"
  type: "Ara2Reshape"
  bottom: "_model_layers_28_Add"
  top: "_model_layers_28_rshp_5_Reshape"
  base_type: "Reshape"
  estimator_group: "Reshape"
  reshape_param {
    shape {
      dim: 1
      dim: 1
      dim: 4096
      dim: 256
    }
  }
}
layer {
  name: "_model_layers_28_prm_5_PermuteNnp"
  type: "Ara2PermuteNnp"
  bottom: "_model_layers_28_rshp_5_Reshape"
  top: "_model_layers_28_prm_5_PermuteNnp"
  base_type: "PermuteNnp"
  estimator_group: "PermuteNnp"
  permute_nnp_param {
    order: 0
    order: 1
    order: 3
    order: 2
  }
}
layer {
  name: "_model_layers_28_post_attention_layernorm_Mul_1_ara_LayerNorm_0"
  type: "Ara2LayerNorm"
  bottom: "_model_layers_28_prm_5_PermuteNnp"
  top: "_model_layers_28_post_attention_layernorm_Mul_1_ara_LayerNorm_0"
  base_type: "LayerNorm"
  estimator_group: "LayerNorm"
  layer_norm_param {
    axis: 3
    eps: 1e-06
    output_mean_var: false
    uses_mean: false
  }
}
layer {
  name: "_model_layers_28_prm_6_PermuteNnp"
  type: "Ara2PermuteNnp"
  bottom: "_model_layers_28_post_attention_layernorm_Mul_1_ara_LayerNorm_0"
  top: "_model_layers_28_prm_6_PermuteNnp"
  base_type: "PermuteNnp"
  estimator_group: "PermuteNnp"
  permute_nnp_param {
    order: 0
    order: 1
    order: 3
    order: 2
  }
}
layer {
  name: "_model_layers_28_rshp_6_Reshape"
  type: "Ara2Reshape"
  bottom: "_model_layers_28_prm_6_PermuteNnp"
  top: "_model_layers_28_rshp_6_Reshape"
  base_type: "Reshape"
  estimator_group: "Reshape"
  reshape_param {
    shape {
      dim: 1
      dim: 4096
      dim: 1
      dim: 256
    }
  }
}
layer {
  name: "_model_layers_28_mlp_up_proj_MatMul_ara_inrp"
  type: "Ara2Convolution"
  bottom: "_model_layers_28_rshp_6_Reshape"
  top: "_model_layers_28_mlp_up_proj_MatMul_ara_inrp"
  base_type: "Convolution"
  estimator_group: "Convolution"
  convolution_param {
    num_output: 11008
    bias_term: false
    kernel_size: 1
    kernel_size: 1
  }
}
layer {
  name: "_model_layers_28_mlp_gate_proj_MatMul_ara_inrp"
  type: "Ara2Convolution"
  bottom: "_model_layers_28_rshp_6_Reshape"
  top: "_model_layers_28_mlp_gate_proj_MatMul_ara_inrp"
  base_type: "Convolution"
  estimator_group: "Convolution"
  convolution_param {
    num_output: 11008
    bias_term: false
    kernel_size: 1
    kernel_size: 1
  }
}
layer {
  name: "_model_layers_28_mlp_act_fn_Mul"
  type: "Ara2Swish"
  bottom: "_model_layers_28_mlp_gate_proj_MatMul_ara_inrp"
  top: "_model_layers_28_mlp_act_fn_Mul"
  base_type: "Swish"
  estimator_group: "activation"
}
layer {
  name: "_model_layers_28_mlp_Mul"
  type: "Ara2Eltwise"
  bottom: "_model_layers_28_mlp_up_proj_MatMul_ara_inrp"
  bottom: "_model_layers_28_mlp_act_fn_Mul"
  top: "_model_layers_28_mlp_Mul"
  base_type: "Eltwise"
  estimator_group: "Eltwise"
  eltwise_param {
    operation: PROD
    broadcast0: 0.0
    broadcast0: 0.0
    broadcast0: 0.0
    broadcast1: 0.0
    broadcast1: 0.0
    broadcast1: 0.0
  }
}
layer {
  name: "_model_layers_28_mlp_down_proj_MatMul_ara_inrp"
  type: "Ara2Convolution"
  bottom: "_model_layers_28_mlp_Mul"
  top: "_model_layers_28_mlp_down_proj_MatMul_ara_inrp"
  base_type: "Convolution"
  estimator_group: "Convolution"
  convolution_param {
    num_output: 4096
    bias_term: false
    kernel_size: 1
    kernel_size: 1
  }
}
layer {
  name: "_model_layers_28_Add_1"
  type: "Ara2Eltwise"
  bottom: "_model_layers_28_Add"
  bottom: "_model_layers_28_mlp_down_proj_MatMul_ara_inrp"
  top: "_model_layers_28_Add_1"
  base_type: "Eltwise"
  estimator_group: "Eltwise"
  eltwise_param {
    operation: SUM
    broadcast0: 0.0
    broadcast0: 0.0
    broadcast0: 0.0
    broadcast1: 0.0
    broadcast1: 0.0
    broadcast1: 0.0
  }
  isOutput: true
}
layer {
  name: "_model_layers_28_residue_perm_3"
  type: "Ara2Reshape"
  bottom: "_model_layers_28_Add_1"
  top: "_model_layers_28_residue_perm_3"
  base_type: "Reshape"
  estimator_group: "Reshape"
  reshape_param {
    shape {
      dim: 1
      dim: 1
      dim: 4096
      dim: 256
    }
  }
}
layer {
  name: "_model_layers_28_residue_rshp_3"
  type: "Ara2PermuteNnp"
  bottom: "_model_layers_28_residue_perm_3"
  top: "_model_layers_28_residue_rshp_3"
  base_type: "PermuteNnp"
  estimator_group: "PermuteNnp"
  permute_nnp_param {
    order: 0
    order: 1
    order: 3
    order: 2
  }
}



layer {
  name: "_model_layers_29_residue_perm_1"
  type: "Ara2PermuteNnp"
  bottom: "_model_layers_28_residue_rshp_3"
  top: "_model_layers_29_residue_perm_1"
  base_type: "PermuteNnp"
  estimator_group: "PermuteNnp"
  permute_nnp_param {
    order: 0
    order: 1
    order: 3
    order: 2
  }
}
layer {
  name: "_model_layers_29_residue_rshp_1"
  type: "Ara2Reshape"
  bottom: "_model_layers_29_residue_perm_1"
  top: "_model_layers_29_residue_rshp_1"
  base_type: "Reshape"
  estimator_group: "Reshape"
  reshape_param {
    shape {
      dim: 1
      dim: 4096
      dim: 1
      dim: 256
    }
  }
}

layer {
  name: "_model_layers_29_input_layernorm_Mul_1_ara_LayerNorm_0"
  type: "Ara2LayerNorm"
  bottom: "_model_layers_28_residue_rshp_3"
  top: "_model_layers_29_input_layernorm_Mul_1_ara_LayerNorm_0"
  base_type: "LayerNorm"
  estimator_group: "LayerNorm"
  layer_norm_param {
    axis: 3
    eps: 1e-06
    output_mean_var: false
    uses_mean: false
  }
}
layer {
  name: "_model_layers_29_residue_perm_2"
  type: "Ara2PermuteNnp"
  bottom: "_model_layers_29_input_layernorm_Mul_1_ara_LayerNorm_0"
  top: "_model_layers_29_residue_perm_2"
  base_type: "PermuteNnp"
  estimator_group: "PermuteNnp"
  permute_nnp_param {
    order: 0
    order: 1
    order: 3
    order: 2
  }
}
layer {
  name: "_model_layers_29_residue_rshp_2"
  type: "Ara2Reshape"
  bottom: "_model_layers_29_residue_perm_2"
  top: "_model_layers_29_residue_rshp_2"
  base_type: "Reshape"
  estimator_group: "Reshape"
  reshape_param {
    shape {
      dim: 1
      dim: 4096
      dim: 1
      dim: 256
    }
  }
}
layer {
  name: "_model_layers_29_self_attn_q_proj_MatMul"
  type: "Ara2Convolution"
  bottom: "_model_layers_29_residue_rshp_2"
  top: "_model_layers_29_self_attn_q_proj_MatMul"
  base_type: "Convolution"
  estimator_group: "Convolution"
  convolution_param {
    num_output: 4096
    bias_term: false
    kernel_size: 1
    kernel_size: 1
  }
}
layer {
  name: "_model_layers_29_self_attn_q_proj_Add_original_bnorm"
  type: "Ara2BatchNorm"
  bottom: "_model_layers_29_self_attn_q_proj_MatMul"
  top: "_model_layers_29_self_attn_q_proj_Add_original_bnorm"
  base_type: "BatchNorm"
  estimator_group: "BatchNorm"
  batch_norm_param {
    use_global_stats: true
    eps: 0.0
  }
}
layer {
  name: "_model_layers_29_self_attn_q_proj_Add_original"
  type: "Ara2Scale"
  bottom: "_model_layers_29_self_attn_q_proj_Add_original_bnorm"
  top: "_model_layers_29_self_attn_q_proj_Add_original"
  base_type: "Scale"
  estimator_group: "Scale"
  scale_param {
    axis: 1
    bias_term: true
  }
}
layer {
  name: "_model_layers_29_self_attn_Reshape_1"
  type: "Ara2Reshape"
  bottom: "_model_layers_29_self_attn_q_proj_Add_original"
  top: "_model_layers_29_self_attn_Reshape_1"
  base_type: "Reshape"
  estimator_group: "Reshape"
  reshape_param {
    shape {
      dim: 1
      dim: 32
      dim: 128
      dim: 256
    }
  }
}
layer {
  name: "_model_layers_29_self_attn_Add"
  type: "Ara2Eltwise"
  bottom: "_model_layers_29_self_attn_Reshape_1"
  bottom: "position_ids_embedded"
  top: "_model_layers_29_self_attn_Add"
  base_type: "Eltwise"
  estimator_group: "Eltwise"
  eltwise_param {
    operation: ROPE
    broadcast1: 0.0
    broadcast1: 1.0
    broadcast1: 0.5
    broadcast1: 0.0
  }
}
layer {
  name: "_model_layers_29_self_attn_k_proj_MatMul"
  type: "Ara2Convolution"
  bottom: "_model_layers_29_residue_rshp_2"
  top: "_model_layers_29_self_attn_k_proj_MatMul"
  base_type: "Convolution"
  estimator_group: "Convolution"
  convolution_param {
    num_output: 4096
    bias_term: false
    kernel_size: 1
    kernel_size: 1
  }
}
layer {
  name: "_model_layers_29_self_attn_k_proj_Add_original_bnorm"
  type: "Ara2BatchNorm"
  bottom: "_model_layers_29_self_attn_k_proj_MatMul"
  top: "_model_layers_29_self_attn_k_proj_Add_original_bnorm"
  base_type: "BatchNorm"
  estimator_group: "BatchNorm"
  batch_norm_param {
    use_global_stats: true
    eps: 0.0
  }
}
layer {
  name: "_model_layers_29_self_attn_k_proj_Add_original"
  type: "Ara2Scale"
  bottom: "_model_layers_29_self_attn_k_proj_Add_original_bnorm"
  top: "_model_layers_29_self_attn_k_proj_Add_original"
  base_type: "Scale"
  estimator_group: "Scale"
  scale_param {
    axis: 1
    bias_term: true
  }
}
layer {
  name: "_model_layers_29_self_attn_Reshape_3"
  type: "Ara2Reshape"
  bottom: "_model_layers_29_self_attn_k_proj_Add_original"
  top: "_model_layers_29_self_attn_Reshape_3"
  base_type: "Reshape"
  estimator_group: "Reshape"
  reshape_param {
    shape {
      dim: 1
      dim: 32
      dim: 128
      dim: 256
    }
  }
}
layer {
  name: "_model_layers_29_self_attn_Add_1"
  type: "Ara2Eltwise"
  bottom: "_model_layers_29_self_attn_Reshape_3"
  bottom: "position_ids_embedded"
  top: "_model_layers_29_self_attn_Add_1"
  base_type: "Eltwise"
  estimator_group: "Eltwise"
  eltwise_param {
    operation: ROPE
    broadcast1: 0.0
    broadcast1: 1.0
    broadcast1: 0.5
    broadcast1: 0.0
  }
}
layer {
  name: "_model_layers_29_self_attn_1_Reshape_1"
  type: "Ara2Reshape"
  bottom: "_model_layers_29_self_attn_Add_1"
  top: "_model_layers_29_self_attn_1_Reshape_1"
  base_type: "Reshape"
  estimator_group: "Reshape"
  reshape_param {
    shape {
      dim: 1
      dim: 1
      dim: 4096
      dim: 256
    }
  }
}
layer {
  name: "_model_layers_29_k_cache"
  type: "Ara2Permute"
  bottom: "_model_layers_29_self_attn_1_Reshape_1"
  top: "_model_layers_29_k_cache"
  base_type: "Permute"
  estimator_group: "Permute"
  permute_param {
    order: 0
    order: 1
    order: 3
    order: 2
  }
  isKeyOutput: 29
  isOutput: true
}
layer {
  name: "_model_layers_29_self_attn_v_proj_MatMul"
  type: "Ara2Convolution"
  bottom: "_model_layers_29_residue_rshp_2"
  top: "_model_layers_29_self_attn_v_proj_MatMul"
  base_type: "Convolution"
  estimator_group: "Convolution"
  convolution_param {
    num_output: 4096
    bias_term: false
    kernel_size: 1
    kernel_size: 1
  }
}
layer {
  name: "_model_layers_29_self_attn_v_proj_Add_original_bnorm"
  type: "Ara2BatchNorm"
  bottom: "_model_layers_29_self_attn_v_proj_MatMul"
  top: "_model_layers_29_self_attn_v_proj_Add_original_bnorm"
  base_type: "BatchNorm"
  estimator_group: "BatchNorm"
  batch_norm_param {
    use_global_stats: true
    eps: 0.0
  }
}
layer {
  name: "_model_layers_29_self_attn_v_proj_Add_original"
  type: "Ara2Scale"
  bottom: "_model_layers_29_self_attn_v_proj_Add_original_bnorm"
  top: "_model_layers_29_self_attn_v_proj_Add_original"
  base_type: "Scale"
  estimator_group: "Scale"
  scale_param {
    axis: 1
    bias_term: true
  }
}
layer {
  name: "_model_layers_29_self_attn_2_Reshape_1"
  type: "Ara2Reshape"
  bottom: "_model_layers_29_self_attn_v_proj_Add_original"
  top: "_model_layers_29_self_attn_2_Reshape_1"
  base_type: "Reshape"
  estimator_group: "Reshape"
  reshape_param {
    shape {
      dim: 1
      dim: 1
      dim: 4096
      dim: 256
    }
  }
}
layer {
  name: "_model_layers_29_v_cache"
  type: "Ara2Permute"
  bottom: "_model_layers_29_self_attn_2_Reshape_1"
  top: "_model_layers_29_v_cache"
  base_type: "Permute"
  estimator_group: "Permute"
  permute_param {
    order: 0
    order: 1
    order: 3
    order: 2
  }
  isValueOutput: 29
  isOutput: true
}
layer {
  name: "_model_layers_29_self_attn_Reshape_2"
  type: "Ara2Reshape"
  bottom: "_model_layers_29_self_attn_v_proj_Add_original"
  top: "_model_layers_29_self_attn_Reshape_2"
  base_type: "Reshape"
  estimator_group: "Reshape"
  reshape_param {
    shape {
      dim: 1
      dim: 32
      dim: 128
      dim: 256
    }
  }
}
layer {
  name: "_model_layers_29_self_attn_Transpose_2"
  type: "Ara2PermuteNnp"
  bottom: "_model_layers_29_self_attn_Reshape_2"
  top: "_model_layers_29_self_attn_Transpose_2"
  base_type: "PermuteNnp"
  estimator_group: "PermuteNnp"
  permute_nnp_param {
    order: 0
    order: 1
    order: 3
    order: 2
  }
}
layer {
  name: "_model_layers_29_self_attn_MatMul"
  type: "Ara2BatchDot"
  bottom: "_model_layers_29_self_attn_Add_1"
  bottom: "_model_layers_29_self_attn_Add"
  top: "_model_layers_29_self_attn_MatMul"
  base_type: "BatchDot"
  estimator_group: "BatchDot"
  batch_dot_param {
    transpose_a: 1
    transpose_b: 0
    multiplier: 0.08838834916
  }
}
layer {
  name: "_model_layers_29_self_attn_Softmax"
  type: "Ara2AttentionSoftmax"
  bottom: "_model_layers_29_self_attn_MatMul"
  bottom: "valid_till"
  top: "_model_layers_29_self_attn_Softmax"
  base_type: "AttentionSoftmax"
  estimator_group: "AttentionSoftmax"
  attentionsoftmax_param {
    axis: 2
  }
}
layer {
  name: "_model_layers_29_self_attn_MatMul_1"
  type: "Ara2BatchDot"
  bottom: "_model_layers_29_self_attn_Transpose_2"
  bottom: "_model_layers_29_self_attn_Softmax"
  top: "_model_layers_29_self_attn_MatMul_1"
  base_type: "BatchDot"
  estimator_group: "BatchDot"
  batch_dot_param {
    transpose_a: 1
    transpose_b: 0
  }
}
layer {
  name: "_model_layers_29_self_attn_o_proj_MatMul_ara_reshape_0"
  type: "Ara2Reshape"
  bottom: "_model_layers_29_self_attn_MatMul_1"
  top: "_model_layers_29_self_attn_o_proj_MatMul_ara_reshape_0"
  base_type: "Reshape"
  estimator_group: "Reshape"
  reshape_param {
    shape {
      dim: 1
      dim: 4096
      dim: 1
      dim: 256
    }
  }
}
layer {
  name: "_model_layers_29_self_attn_o_proj_MatMul_ara_inrp"
  type: "Ara2Convolution"
  bottom: "_model_layers_29_self_attn_o_proj_MatMul_ara_reshape_0"
  top: "_model_layers_29_self_attn_o_proj_MatMul_ara_inrp"
  base_type: "Convolution"
  estimator_group: "Convolution"
  convolution_param {
    num_output: 4096
    bias_term: false
    kernel_size: 1
    kernel_size: 1
  }
}
layer {
  name: "_model_layers_29_Add"
  type: "Ara2Eltwise"
  bottom: "_model_layers_29_self_attn_o_proj_MatMul_ara_inrp"
  bottom: "_model_layers_29_residue_rshp_1"
  top: "_model_layers_29_Add"
  base_type: "Eltwise"
  estimator_group: "Eltwise"
  eltwise_param {
    operation: SUM
    broadcast0: 0.0
    broadcast0: 0.0
    broadcast0: 0.0
    broadcast1: 0.0
    broadcast1: 0.0
    broadcast1: 0.0
  }
}
layer {
  name: "_model_layers_29_rshp_5_Reshape"
  type: "Ara2Reshape"
  bottom: "_model_layers_29_Add"
  top: "_model_layers_29_rshp_5_Reshape"
  base_type: "Reshape"
  estimator_group: "Reshape"
  reshape_param {
    shape {
      dim: 1
      dim: 1
      dim: 4096
      dim: 256
    }
  }
}
layer {
  name: "_model_layers_29_prm_5_PermuteNnp"
  type: "Ara2PermuteNnp"
  bottom: "_model_layers_29_rshp_5_Reshape"
  top: "_model_layers_29_prm_5_PermuteNnp"
  base_type: "PermuteNnp"
  estimator_group: "PermuteNnp"
  permute_nnp_param {
    order: 0
    order: 1
    order: 3
    order: 2
  }
}
layer {
  name: "_model_layers_29_post_attention_layernorm_Mul_1_ara_LayerNorm_0"
  type: "Ara2LayerNorm"
  bottom: "_model_layers_29_prm_5_PermuteNnp"
  top: "_model_layers_29_post_attention_layernorm_Mul_1_ara_LayerNorm_0"
  base_type: "LayerNorm"
  estimator_group: "LayerNorm"
  layer_norm_param {
    axis: 3
    eps: 1e-06
    output_mean_var: false
    uses_mean: false
  }
}
layer {
  name: "_model_layers_29_prm_6_PermuteNnp"
  type: "Ara2PermuteNnp"
  bottom: "_model_layers_29_post_attention_layernorm_Mul_1_ara_LayerNorm_0"
  top: "_model_layers_29_prm_6_PermuteNnp"
  base_type: "PermuteNnp"
  estimator_group: "PermuteNnp"
  permute_nnp_param {
    order: 0
    order: 1
    order: 3
    order: 2
  }
}
layer {
  name: "_model_layers_29_rshp_6_Reshape"
  type: "Ara2Reshape"
  bottom: "_model_layers_29_prm_6_PermuteNnp"
  top: "_model_layers_29_rshp_6_Reshape"
  base_type: "Reshape"
  estimator_group: "Reshape"
  reshape_param {
    shape {
      dim: 1
      dim: 4096
      dim: 1
      dim: 256
    }
  }
}
layer {
  name: "_model_layers_29_mlp_up_proj_MatMul_ara_inrp"
  type: "Ara2Convolution"
  bottom: "_model_layers_29_rshp_6_Reshape"
  top: "_model_layers_29_mlp_up_proj_MatMul_ara_inrp"
  base_type: "Convolution"
  estimator_group: "Convolution"
  convolution_param {
    num_output: 11008
    bias_term: false
    kernel_size: 1
    kernel_size: 1
  }
}
layer {
  name: "_model_layers_29_mlp_gate_proj_MatMul_ara_inrp"
  type: "Ara2Convolution"
  bottom: "_model_layers_29_rshp_6_Reshape"
  top: "_model_layers_29_mlp_gate_proj_MatMul_ara_inrp"
  base_type: "Convolution"
  estimator_group: "Convolution"
  convolution_param {
    num_output: 11008
    bias_term: false
    kernel_size: 1
    kernel_size: 1
  }
}
layer {
  name: "_model_layers_29_mlp_act_fn_Mul"
  type: "Ara2Swish"
  bottom: "_model_layers_29_mlp_gate_proj_MatMul_ara_inrp"
  top: "_model_layers_29_mlp_act_fn_Mul"
  base_type: "Swish"
  estimator_group: "activation"
}
layer {
  name: "_model_layers_29_mlp_Mul"
  type: "Ara2Eltwise"
  bottom: "_model_layers_29_mlp_up_proj_MatMul_ara_inrp"
  bottom: "_model_layers_29_mlp_act_fn_Mul"
  top: "_model_layers_29_mlp_Mul"
  base_type: "Eltwise"
  estimator_group: "Eltwise"
  eltwise_param {
    operation: PROD
    broadcast0: 0.0
    broadcast0: 0.0
    broadcast0: 0.0
    broadcast1: 0.0
    broadcast1: 0.0
    broadcast1: 0.0
  }
}
layer {
  name: "_model_layers_29_mlp_down_proj_MatMul_ara_inrp"
  type: "Ara2Convolution"
  bottom: "_model_layers_29_mlp_Mul"
  top: "_model_layers_29_mlp_down_proj_MatMul_ara_inrp"
  base_type: "Convolution"
  estimator_group: "Convolution"
  convolution_param {
    num_output: 4096
    bias_term: false
    kernel_size: 1
    kernel_size: 1
  }
}
layer {
  name: "_model_layers_29_Add_1"
  type: "Ara2Eltwise"
  bottom: "_model_layers_29_Add"
  bottom: "_model_layers_29_mlp_down_proj_MatMul_ara_inrp"
  top: "_model_layers_29_Add_1"
  base_type: "Eltwise"
  estimator_group: "Eltwise"
  eltwise_param {
    operation: SUM
    broadcast0: 0.0
    broadcast0: 0.0
    broadcast0: 0.0
    broadcast1: 0.0
    broadcast1: 0.0
    broadcast1: 0.0
  }
  isOutput: true
}
layer {
  name: "_model_layers_29_residue_perm_3"
  type: "Ara2Reshape"
  bottom: "_model_layers_29_Add_1"
  top: "_model_layers_29_residue_perm_3"
  base_type: "Reshape"
  estimator_group: "Reshape"
  reshape_param {
    shape {
      dim: 1
      dim: 1
      dim: 4096
      dim: 256
    }
  }
}
layer {
  name: "_model_layers_29_residue_rshp_3"
  type: "Ara2PermuteNnp"
  bottom: "_model_layers_29_residue_perm_3"
  top: "_model_layers_29_residue_rshp_3"
  base_type: "PermuteNnp"
  estimator_group: "PermuteNnp"
  permute_nnp_param {
    order: 0
    order: 1
    order: 3
    order: 2
  }
}



layer {
  name: "_model_layers_30_residue_perm_1"
  type: "Ara2PermuteNnp"
  bottom: "_model_layers_29_residue_rshp_3"
  top: "_model_layers_30_residue_perm_1"
  base_type: "PermuteNnp"
  estimator_group: "PermuteNnp"
  permute_nnp_param {
    order: 0
    order: 1
    order: 3
    order: 2
  }
}
layer {
  name: "_model_layers_30_residue_rshp_1"
  type: "Ara2Reshape"
  bottom: "_model_layers_30_residue_perm_1"
  top: "_model_layers_30_residue_rshp_1"
  base_type: "Reshape"
  estimator_group: "Reshape"
  reshape_param {
    shape {
      dim: 1
      dim: 4096
      dim: 1
      dim: 256
    }
  }
}

layer {
  name: "_model_layers_30_input_layernorm_Mul_1_ara_LayerNorm_0"
  type: "Ara2LayerNorm"
  bottom: "_model_layers_29_residue_rshp_3"
  top: "_model_layers_30_input_layernorm_Mul_1_ara_LayerNorm_0"
  base_type: "LayerNorm"
  estimator_group: "LayerNorm"
  layer_norm_param {
    axis: 3
    eps: 1e-06
    output_mean_var: false
    uses_mean: false
  }
}
layer {
  name: "_model_layers_30_residue_perm_2"
  type: "Ara2PermuteNnp"
  bottom: "_model_layers_30_input_layernorm_Mul_1_ara_LayerNorm_0"
  top: "_model_layers_30_residue_perm_2"
  base_type: "PermuteNnp"
  estimator_group: "PermuteNnp"
  permute_nnp_param {
    order: 0
    order: 1
    order: 3
    order: 2
  }
}
layer {
  name: "_model_layers_30_residue_rshp_2"
  type: "Ara2Reshape"
  bottom: "_model_layers_30_residue_perm_2"
  top: "_model_layers_30_residue_rshp_2"
  base_type: "Reshape"
  estimator_group: "Reshape"
  reshape_param {
    shape {
      dim: 1
      dim: 4096
      dim: 1
      dim: 256
    }
  }
}
layer {
  name: "_model_layers_30_self_attn_q_proj_MatMul"
  type: "Ara2Convolution"
  bottom: "_model_layers_30_residue_rshp_2"
  top: "_model_layers_30_self_attn_q_proj_MatMul"
  base_type: "Convolution"
  estimator_group: "Convolution"
  convolution_param {
    num_output: 4096
    bias_term: false
    kernel_size: 1
    kernel_size: 1
  }
}
layer {
  name: "_model_layers_30_self_attn_q_proj_Add_original_bnorm"
  type: "Ara2BatchNorm"
  bottom: "_model_layers_30_self_attn_q_proj_MatMul"
  top: "_model_layers_30_self_attn_q_proj_Add_original_bnorm"
  base_type: "BatchNorm"
  estimator_group: "BatchNorm"
  batch_norm_param {
    use_global_stats: true
    eps: 0.0
  }
}
layer {
  name: "_model_layers_30_self_attn_q_proj_Add_original"
  type: "Ara2Scale"
  bottom: "_model_layers_30_self_attn_q_proj_Add_original_bnorm"
  top: "_model_layers_30_self_attn_q_proj_Add_original"
  base_type: "Scale"
  estimator_group: "Scale"
  scale_param {
    axis: 1
    bias_term: true
  }
}
layer {
  name: "_model_layers_30_self_attn_Reshape_1"
  type: "Ara2Reshape"
  bottom: "_model_layers_30_self_attn_q_proj_Add_original"
  top: "_model_layers_30_self_attn_Reshape_1"
  base_type: "Reshape"
  estimator_group: "Reshape"
  reshape_param {
    shape {
      dim: 1
      dim: 32
      dim: 128
      dim: 256
    }
  }
}
layer {
  name: "_model_layers_30_self_attn_Add"
  type: "Ara2Eltwise"
  bottom: "_model_layers_30_self_attn_Reshape_1"
  bottom: "position_ids_embedded"
  top: "_model_layers_30_self_attn_Add"
  base_type: "Eltwise"
  estimator_group: "Eltwise"
  eltwise_param {
    operation: ROPE
    broadcast1: 0.0
    broadcast1: 1.0
    broadcast1: 0.5
    broadcast1: 0.0
  }
}
layer {
  name: "_model_layers_30_self_attn_k_proj_MatMul"
  type: "Ara2Convolution"
  bottom: "_model_layers_30_residue_rshp_2"
  top: "_model_layers_30_self_attn_k_proj_MatMul"
  base_type: "Convolution"
  estimator_group: "Convolution"
  convolution_param {
    num_output: 4096
    bias_term: false
    kernel_size: 1
    kernel_size: 1
  }
}
layer {
  name: "_model_layers_30_self_attn_k_proj_Add_original_bnorm"
  type: "Ara2BatchNorm"
  bottom: "_model_layers_30_self_attn_k_proj_MatMul"
  top: "_model_layers_30_self_attn_k_proj_Add_original_bnorm"
  base_type: "BatchNorm"
  estimator_group: "BatchNorm"
  batch_norm_param {
    use_global_stats: true
    eps: 0.0
  }
}
layer {
  name: "_model_layers_30_self_attn_k_proj_Add_original"
  type: "Ara2Scale"
  bottom: "_model_layers_30_self_attn_k_proj_Add_original_bnorm"
  top: "_model_layers_30_self_attn_k_proj_Add_original"
  base_type: "Scale"
  estimator_group: "Scale"
  scale_param {
    axis: 1
    bias_term: true
  }
}
layer {
  name: "_model_layers_30_self_attn_Reshape_3"
  type: "Ara2Reshape"
  bottom: "_model_layers_30_self_attn_k_proj_Add_original"
  top: "_model_layers_30_self_attn_Reshape_3"
  base_type: "Reshape"
  estimator_group: "Reshape"
  reshape_param {
    shape {
      dim: 1
      dim: 32
      dim: 128
      dim: 256
    }
  }
}
layer {
  name: "_model_layers_30_self_attn_Add_1"
  type: "Ara2Eltwise"
  bottom: "_model_layers_30_self_attn_Reshape_3"
  bottom: "position_ids_embedded"
  top: "_model_layers_30_self_attn_Add_1"
  base_type: "Eltwise"
  estimator_group: "Eltwise"
  eltwise_param {
    operation: ROPE
    broadcast1: 0.0
    broadcast1: 1.0
    broadcast1: 0.5
    broadcast1: 0.0
  }
}
layer {
  name: "_model_layers_30_self_attn_1_Reshape_1"
  type: "Ara2Reshape"
  bottom: "_model_layers_30_self_attn_Add_1"
  top: "_model_layers_30_self_attn_1_Reshape_1"
  base_type: "Reshape"
  estimator_group: "Reshape"
  reshape_param {
    shape {
      dim: 1
      dim: 1
      dim: 4096
      dim: 256
    }
  }
}
layer {
  name: "_model_layers_30_k_cache"
  type: "Ara2Permute"
  bottom: "_model_layers_30_self_attn_1_Reshape_1"
  top: "_model_layers_30_k_cache"
  base_type: "Permute"
  estimator_group: "Permute"
  permute_param {
    order: 0
    order: 1
    order: 3
    order: 2
  }
  isKeyOutput: 30
  isOutput: true
}
layer {
  name: "_model_layers_30_self_attn_v_proj_MatMul"
  type: "Ara2Convolution"
  bottom: "_model_layers_30_residue_rshp_2"
  top: "_model_layers_30_self_attn_v_proj_MatMul"
  base_type: "Convolution"
  estimator_group: "Convolution"
  convolution_param {
    num_output: 4096
    bias_term: false
    kernel_size: 1
    kernel_size: 1
  }
}
layer {
  name: "_model_layers_30_self_attn_v_proj_Add_original_bnorm"
  type: "Ara2BatchNorm"
  bottom: "_model_layers_30_self_attn_v_proj_MatMul"
  top: "_model_layers_30_self_attn_v_proj_Add_original_bnorm"
  base_type: "BatchNorm"
  estimator_group: "BatchNorm"
  batch_norm_param {
    use_global_stats: true
    eps: 0.0
  }
}
layer {
  name: "_model_layers_30_self_attn_v_proj_Add_original"
  type: "Ara2Scale"
  bottom: "_model_layers_30_self_attn_v_proj_Add_original_bnorm"
  top: "_model_layers_30_self_attn_v_proj_Add_original"
  base_type: "Scale"
  estimator_group: "Scale"
  scale_param {
    axis: 1
    bias_term: true
  }
}
layer {
  name: "_model_layers_30_self_attn_2_Reshape_1"
  type: "Ara2Reshape"
  bottom: "_model_layers_30_self_attn_v_proj_Add_original"
  top: "_model_layers_30_self_attn_2_Reshape_1"
  base_type: "Reshape"
  estimator_group: "Reshape"
  reshape_param {
    shape {
      dim: 1
      dim: 1
      dim: 4096
      dim: 256
    }
  }
}
layer {
  name: "_model_layers_30_v_cache"
  type: "Ara2Permute"
  bottom: "_model_layers_30_self_attn_2_Reshape_1"
  top: "_model_layers_30_v_cache"
  base_type: "Permute"
  estimator_group: "Permute"
  permute_param {
    order: 0
    order: 1
    order: 3
    order: 2
  }
  isValueOutput: 30
  isOutput: true
}
layer {
  name: "_model_layers_30_self_attn_Reshape_2"
  type: "Ara2Reshape"
  bottom: "_model_layers_30_self_attn_v_proj_Add_original"
  top: "_model_layers_30_self_attn_Reshape_2"
  base_type: "Reshape"
  estimator_group: "Reshape"
  reshape_param {
    shape {
      dim: 1
      dim: 32
      dim: 128
      dim: 256
    }
  }
}
layer {
  name: "_model_layers_30_self_attn_Transpose_2"
  type: "Ara2PermuteNnp"
  bottom: "_model_layers_30_self_attn_Reshape_2"
  top: "_model_layers_30_self_attn_Transpose_2"
  base_type: "PermuteNnp"
  estimator_group: "PermuteNnp"
  permute_nnp_param {
    order: 0
    order: 1
    order: 3
    order: 2
  }
}
layer {
  name: "_model_layers_30_self_attn_MatMul"
  type: "Ara2BatchDot"
  bottom: "_model_layers_30_self_attn_Add_1"
  bottom: "_model_layers_30_self_attn_Add"
  top: "_model_layers_30_self_attn_MatMul"
  base_type: "BatchDot"
  estimator_group: "BatchDot"
  batch_dot_param {
    transpose_a: 1
    transpose_b: 0
    multiplier: 0.08838834916
  }
}
layer {
  name: "_model_layers_30_self_attn_Softmax"
  type: "Ara2AttentionSoftmax"
  bottom: "_model_layers_30_self_attn_MatMul"
  bottom: "valid_till"
  top: "_model_layers_30_self_attn_Softmax"
  base_type: "AttentionSoftmax"
  estimator_group: "AttentionSoftmax"
  attentionsoftmax_param {
    axis: 2
  }
}
layer {
  name: "_model_layers_30_self_attn_MatMul_1"
  type: "Ara2BatchDot"
  bottom: "_model_layers_30_self_attn_Transpose_2"
  bottom: "_model_layers_30_self_attn_Softmax"
  top: "_model_layers_30_self_attn_MatMul_1"
  base_type: "BatchDot"
  estimator_group: "BatchDot"
  batch_dot_param {
    transpose_a: 1
    transpose_b: 0
  }
}
layer {
  name: "_model_layers_30_self_attn_o_proj_MatMul_ara_reshape_0"
  type: "Ara2Reshape"
  bottom: "_model_layers_30_self_attn_MatMul_1"
  top: "_model_layers_30_self_attn_o_proj_MatMul_ara_reshape_0"
  base_type: "Reshape"
  estimator_group: "Reshape"
  reshape_param {
    shape {
      dim: 1
      dim: 4096
      dim: 1
      dim: 256
    }
  }
}
layer {
  name: "_model_layers_30_self_attn_o_proj_MatMul_ara_inrp"
  type: "Ara2Convolution"
  bottom: "_model_layers_30_self_attn_o_proj_MatMul_ara_reshape_0"
  top: "_model_layers_30_self_attn_o_proj_MatMul_ara_inrp"
  base_type: "Convolution"
  estimator_group: "Convolution"
  convolution_param {
    num_output: 4096
    bias_term: false
    kernel_size: 1
    kernel_size: 1
  }
}
layer {
  name: "_model_layers_30_Add"
  type: "Ara2Eltwise"
  bottom: "_model_layers_30_self_attn_o_proj_MatMul_ara_inrp"
  bottom: "_model_layers_30_residue_rshp_1"
  top: "_model_layers_30_Add"
  base_type: "Eltwise"
  estimator_group: "Eltwise"
  eltwise_param {
    operation: SUM
    broadcast0: 0.0
    broadcast0: 0.0
    broadcast0: 0.0
    broadcast1: 0.0
    broadcast1: 0.0
    broadcast1: 0.0
  }
}
layer {
  name: "_model_layers_30_rshp_5_Reshape"
  type: "Ara2Reshape"
  bottom: "_model_layers_30_Add"
  top: "_model_layers_30_rshp_5_Reshape"
  base_type: "Reshape"
  estimator_group: "Reshape"
  reshape_param {
    shape {
      dim: 1
      dim: 1
      dim: 4096
      dim: 256
    }
  }
}
layer {
  name: "_model_layers_30_prm_5_PermuteNnp"
  type: "Ara2PermuteNnp"
  bottom: "_model_layers_30_rshp_5_Reshape"
  top: "_model_layers_30_prm_5_PermuteNnp"
  base_type: "PermuteNnp"
  estimator_group: "PermuteNnp"
  permute_nnp_param {
    order: 0
    order: 1
    order: 3
    order: 2
  }
}
layer {
  name: "_model_layers_30_post_attention_layernorm_Mul_1_ara_LayerNorm_0"
  type: "Ara2LayerNorm"
  bottom: "_model_layers_30_prm_5_PermuteNnp"
  top: "_model_layers_30_post_attention_layernorm_Mul_1_ara_LayerNorm_0"
  base_type: "LayerNorm"
  estimator_group: "LayerNorm"
  layer_norm_param {
    axis: 3
    eps: 1e-06
    output_mean_var: false
    uses_mean: false
  }
}
layer {
  name: "_model_layers_30_prm_6_PermuteNnp"
  type: "Ara2PermuteNnp"
  bottom: "_model_layers_30_post_attention_layernorm_Mul_1_ara_LayerNorm_0"
  top: "_model_layers_30_prm_6_PermuteNnp"
  base_type: "PermuteNnp"
  estimator_group: "PermuteNnp"
  permute_nnp_param {
    order: 0
    order: 1
    order: 3
    order: 2
  }
}
layer {
  name: "_model_layers_30_rshp_6_Reshape"
  type: "Ara2Reshape"
  bottom: "_model_layers_30_prm_6_PermuteNnp"
  top: "_model_layers_30_rshp_6_Reshape"
  base_type: "Reshape"
  estimator_group: "Reshape"
  reshape_param {
    shape {
      dim: 1
      dim: 4096
      dim: 1
      dim: 256
    }
  }
}
layer {
  name: "_model_layers_30_mlp_up_proj_MatMul_ara_inrp"
  type: "Ara2Convolution"
  bottom: "_model_layers_30_rshp_6_Reshape"
  top: "_model_layers_30_mlp_up_proj_MatMul_ara_inrp"
  base_type: "Convolution"
  estimator_group: "Convolution"
  convolution_param {
    num_output: 11008
    bias_term: false
    kernel_size: 1
    kernel_size: 1
  }
}
layer {
  name: "_model_layers_30_mlp_gate_proj_MatMul_ara_inrp"
  type: "Ara2Convolution"
  bottom: "_model_layers_30_rshp_6_Reshape"
  top: "_model_layers_30_mlp_gate_proj_MatMul_ara_inrp"
  base_type: "Convolution"
  estimator_group: "Convolution"
  convolution_param {
    num_output: 11008
    bias_term: false
    kernel_size: 1
    kernel_size: 1
  }
}
layer {
  name: "_model_layers_30_mlp_act_fn_Mul"
  type: "Ara2Swish"
  bottom: "_model_layers_30_mlp_gate_proj_MatMul_ara_inrp"
  top: "_model_layers_30_mlp_act_fn_Mul"
  base_type: "Swish"
  estimator_group: "activation"
}
layer {
  name: "_model_layers_30_mlp_Mul"
  type: "Ara2Eltwise"
  bottom: "_model_layers_30_mlp_up_proj_MatMul_ara_inrp"
  bottom: "_model_layers_30_mlp_act_fn_Mul"
  top: "_model_layers_30_mlp_Mul"
  base_type: "Eltwise"
  estimator_group: "Eltwise"
  eltwise_param {
    operation: PROD
    broadcast0: 0.0
    broadcast0: 0.0
    broadcast0: 0.0
    broadcast1: 0.0
    broadcast1: 0.0
    broadcast1: 0.0
  }
}
layer {
  name: "_model_layers_30_mlp_down_proj_MatMul_ara_inrp"
  type: "Ara2Convolution"
  bottom: "_model_layers_30_mlp_Mul"
  top: "_model_layers_30_mlp_down_proj_MatMul_ara_inrp"
  base_type: "Convolution"
  estimator_group: "Convolution"
  convolution_param {
    num_output: 4096
    bias_term: false
    kernel_size: 1
    kernel_size: 1
  }
}
layer {
  name: "_model_layers_30_Add_1"
  type: "Ara2Eltwise"
  bottom: "_model_layers_30_Add"
  bottom: "_model_layers_30_mlp_down_proj_MatMul_ara_inrp"
  top: "_model_layers_30_Add_1"
  base_type: "Eltwise"
  estimator_group: "Eltwise"
  eltwise_param {
    operation: SUM
    broadcast0: 0.0
    broadcast0: 0.0
    broadcast0: 0.0
    broadcast1: 0.0
    broadcast1: 0.0
    broadcast1: 0.0
  }
  isOutput: true
}
layer {
  name: "_model_layers_30_residue_perm_3"
  type: "Ara2Reshape"
  bottom: "_model_layers_30_Add_1"
  top: "_model_layers_30_residue_perm_3"
  base_type: "Reshape"
  estimator_group: "Reshape"
  reshape_param {
    shape {
      dim: 1
      dim: 1
      dim: 4096
      dim: 256
    }
  }
}
layer {
  name: "_model_layers_30_residue_rshp_3"
  type: "Ara2PermuteNnp"
  bottom: "_model_layers_30_residue_perm_3"
  top: "_model_layers_30_residue_rshp_3"
  base_type: "PermuteNnp"
  estimator_group: "PermuteNnp"
  permute_nnp_param {
    order: 0
    order: 1
    order: 3
    order: 2
  }
}



layer {
  name: "_model_layers_31_residue_perm_1"
  type: "Ara2PermuteNnp"
  bottom: "_model_layers_30_residue_rshp_3"
  top: "_model_layers_31_residue_perm_1"
  base_type: "PermuteNnp"
  estimator_group: "PermuteNnp"
  permute_nnp_param {
    order: 0
    order: 1
    order: 3
    order: 2
  }
}
layer {
  name: "_model_layers_31_residue_rshp_1"
  type: "Ara2Reshape"
  bottom: "_model_layers_31_residue_perm_1"
  top: "_model_layers_31_residue_rshp_1"
  base_type: "Reshape"
  estimator_group: "Reshape"
  reshape_param {
    shape {
      dim: 1
      dim: 4096
      dim: 1
      dim: 256
    }
  }
}

layer {
  name: "_model_layers_31_input_layernorm_Mul_1_ara_LayerNorm_0"
  type: "Ara2LayerNorm"
  bottom: "_model_layers_30_residue_rshp_3"
  top: "_model_layers_31_input_layernorm_Mul_1_ara_LayerNorm_0"
  base_type: "LayerNorm"
  estimator_group: "LayerNorm"
  layer_norm_param {
    axis: 3
    eps: 1e-06
    output_mean_var: false
    uses_mean: false
  }
}
layer {
  name: "_model_layers_31_residue_perm_2"
  type: "Ara2PermuteNnp"
  bottom: "_model_layers_31_input_layernorm_Mul_1_ara_LayerNorm_0"
  top: "_model_layers_31_residue_perm_2"
  base_type: "PermuteNnp"
  estimator_group: "PermuteNnp"
  permute_nnp_param {
    order: 0
    order: 1
    order: 3
    order: 2
  }
}
layer {
  name: "_model_layers_31_residue_rshp_2"
  type: "Ara2Reshape"
  bottom: "_model_layers_31_residue_perm_2"
  top: "_model_layers_31_residue_rshp_2"
  base_type: "Reshape"
  estimator_group: "Reshape"
  reshape_param {
    shape {
      dim: 1
      dim: 4096
      dim: 1
      dim: 256
    }
  }
}
layer {
  name: "_model_layers_31_self_attn_q_proj_MatMul"
  type: "Ara2Convolution"
  bottom: "_model_layers_31_residue_rshp_2"
  top: "_model_layers_31_self_attn_q_proj_MatMul"
  base_type: "Convolution"
  estimator_group: "Convolution"
  convolution_param {
    num_output: 4096
    bias_term: false
    kernel_size: 1
    kernel_size: 1
  }
}
layer {
  name: "_model_layers_31_self_attn_q_proj_Add_original_bnorm"
  type: "Ara2BatchNorm"
  bottom: "_model_layers_31_self_attn_q_proj_MatMul"
  top: "_model_layers_31_self_attn_q_proj_Add_original_bnorm"
  base_type: "BatchNorm"
  estimator_group: "BatchNorm"
  batch_norm_param {
    use_global_stats: true
    eps: 0.0
  }
}
layer {
  name: "_model_layers_31_self_attn_q_proj_Add_original"
  type: "Ara2Scale"
  bottom: "_model_layers_31_self_attn_q_proj_Add_original_bnorm"
  top: "_model_layers_31_self_attn_q_proj_Add_original"
  base_type: "Scale"
  estimator_group: "Scale"
  scale_param {
    axis: 1
    bias_term: true
  }
}
layer {
  name: "_model_layers_31_self_attn_Reshape_1"
  type: "Ara2Reshape"
  bottom: "_model_layers_31_self_attn_q_proj_Add_original"
  top: "_model_layers_31_self_attn_Reshape_1"
  base_type: "Reshape"
  estimator_group: "Reshape"
  reshape_param {
    shape {
      dim: 1
      dim: 32
      dim: 128
      dim: 256
    }
  }
}
layer {
  name: "_model_layers_31_self_attn_Add"
  type: "Ara2Eltwise"
  bottom: "_model_layers_31_self_attn_Reshape_1"
  bottom: "position_ids_embedded"
  top: "_model_layers_31_self_attn_Add"
  base_type: "Eltwise"
  estimator_group: "Eltwise"
  eltwise_param {
    operation: ROPE
    broadcast1: 0.0
    broadcast1: 1.0
    broadcast1: 0.5
    broadcast1: 0.0
  }
}
layer {
  name: "_model_layers_31_self_attn_k_proj_MatMul"
  type: "Ara2Convolution"
  bottom: "_model_layers_31_residue_rshp_2"
  top: "_model_layers_31_self_attn_k_proj_MatMul"
  base_type: "Convolution"
  estimator_group: "Convolution"
  convolution_param {
    num_output: 4096
    bias_term: false
    kernel_size: 1
    kernel_size: 1
  }
}
layer {
  name: "_model_layers_31_self_attn_k_proj_Add_original_bnorm"
  type: "Ara2BatchNorm"
  bottom: "_model_layers_31_self_attn_k_proj_MatMul"
  top: "_model_layers_31_self_attn_k_proj_Add_original_bnorm"
  base_type: "BatchNorm"
  estimator_group: "BatchNorm"
  batch_norm_param {
    use_global_stats: true
    eps: 0.0
  }
}
layer {
  name: "_model_layers_31_self_attn_k_proj_Add_original"
  type: "Ara2Scale"
  bottom: "_model_layers_31_self_attn_k_proj_Add_original_bnorm"
  top: "_model_layers_31_self_attn_k_proj_Add_original"
  base_type: "Scale"
  estimator_group: "Scale"
  scale_param {
    axis: 1
    bias_term: true
  }
}
layer {
  name: "_model_layers_31_self_attn_Reshape_3"
  type: "Ara2Reshape"
  bottom: "_model_layers_31_self_attn_k_proj_Add_original"
  top: "_model_layers_31_self_attn_Reshape_3"
  base_type: "Reshape"
  estimator_group: "Reshape"
  reshape_param {
    shape {
      dim: 1
      dim: 32
      dim: 128
      dim: 256
    }
  }
}
layer {
  name: "_model_layers_31_self_attn_Add_1"
  type: "Ara2Eltwise"
  bottom: "_model_layers_31_self_attn_Reshape_3"
  bottom: "position_ids_embedded"
  top: "_model_layers_31_self_attn_Add_1"
  base_type: "Eltwise"
  estimator_group: "Eltwise"
  eltwise_param {
    operation: ROPE
    broadcast1: 0.0
    broadcast1: 1.0
    broadcast1: 0.5
    broadcast1: 0.0
  }
}
layer {
  name: "_model_layers_31_self_attn_1_Reshape_1"
  type: "Ara2Reshape"
  bottom: "_model_layers_31_self_attn_Add_1"
  top: "_model_layers_31_self_attn_1_Reshape_1"
  base_type: "Reshape"
  estimator_group: "Reshape"
  reshape_param {
    shape {
      dim: 1
      dim: 1
      dim: 4096
      dim: 256
    }
  }
}
layer {
  name: "_model_layers_31_k_cache"
  type: "Ara2Permute"
  bottom: "_model_layers_31_self_attn_1_Reshape_1"
  top: "_model_layers_31_k_cache"
  base_type: "Permute"
  estimator_group: "Permute"
  permute_param {
    order: 0
    order: 1
    order: 3
    order: 2
  }
  isKeyOutput: 31
  isOutput: true
}
layer {
  name: "_model_layers_31_self_attn_v_proj_MatMul"
  type: "Ara2Convolution"
  bottom: "_model_layers_31_residue_rshp_2"
  top: "_model_layers_31_self_attn_v_proj_MatMul"
  base_type: "Convolution"
  estimator_group: "Convolution"
  convolution_param {
    num_output: 4096
    bias_term: false
    kernel_size: 1
    kernel_size: 1
  }
}
layer {
  name: "_model_layers_31_self_attn_v_proj_Add_original_bnorm"
  type: "Ara2BatchNorm"
  bottom: "_model_layers_31_self_attn_v_proj_MatMul"
  top: "_model_layers_31_self_attn_v_proj_Add_original_bnorm"
  base_type: "BatchNorm"
  estimator_group: "BatchNorm"
  batch_norm_param {
    use_global_stats: true
    eps: 0.0
  }
}
layer {
  name: "_model_layers_31_self_attn_v_proj_Add_original"
  type: "Ara2Scale"
  bottom: "_model_layers_31_self_attn_v_proj_Add_original_bnorm"
  top: "_model_layers_31_self_attn_v_proj_Add_original"
  base_type: "Scale"
  estimator_group: "Scale"
  scale_param {
    axis: 1
    bias_term: true
  }
}
layer {
  name: "_model_layers_31_self_attn_2_Reshape_1"
  type: "Ara2Reshape"
  bottom: "_model_layers_31_self_attn_v_proj_Add_original"
  top: "_model_layers_31_self_attn_2_Reshape_1"
  base_type: "Reshape"
  estimator_group: "Reshape"
  reshape_param {
    shape {
      dim: 1
      dim: 1
      dim: 4096
      dim: 256
    }
  }
}
layer {
  name: "_model_layers_31_v_cache"
  type: "Ara2Permute"
  bottom: "_model_layers_31_self_attn_2_Reshape_1"
  top: "_model_layers_31_v_cache"
  base_type: "Permute"
  estimator_group: "Permute"
  permute_param {
    order: 0
    order: 1
    order: 3
    order: 2
  }
  isValueOutput: 31
  isOutput: true
}
layer {
  name: "_model_layers_31_self_attn_Reshape_2"
  type: "Ara2Reshape"
  bottom: "_model_layers_31_self_attn_v_proj_Add_original"
  top: "_model_layers_31_self_attn_Reshape_2"
  base_type: "Reshape"
  estimator_group: "Reshape"
  reshape_param {
    shape {
      dim: 1
      dim: 32
      dim: 128
      dim: 256
    }
  }
}
layer {
  name: "_model_layers_31_self_attn_Transpose_2"
  type: "Ara2PermuteNnp"
  bottom: "_model_layers_31_self_attn_Reshape_2"
  top: "_model_layers_31_self_attn_Transpose_2"
  base_type: "PermuteNnp"
  estimator_group: "PermuteNnp"
  permute_nnp_param {
    order: 0
    order: 1
    order: 3
    order: 2
  }
}
layer {
  name: "_model_layers_31_self_attn_MatMul"
  type: "Ara2BatchDot"
  bottom: "_model_layers_31_self_attn_Add_1"
  bottom: "_model_layers_31_self_attn_Add"
  top: "_model_layers_31_self_attn_MatMul"
  base_type: "BatchDot"
  estimator_group: "BatchDot"
  batch_dot_param {
    transpose_a: 1
    transpose_b: 0
    multiplier: 0.08838834916
  }
}
layer {
  name: "_model_layers_31_self_attn_Softmax"
  type: "Ara2AttentionSoftmax"
  bottom: "_model_layers_31_self_attn_MatMul"
  bottom: "valid_till"
  top: "_model_layers_31_self_attn_Softmax"
  base_type: "AttentionSoftmax"
  estimator_group: "AttentionSoftmax"
  attentionsoftmax_param {
    axis: 2
  }
}
layer {
  name: "_model_layers_31_self_attn_MatMul_1"
  type: "Ara2BatchDot"
  bottom: "_model_layers_31_self_attn_Transpose_2"
  bottom: "_model_layers_31_self_attn_Softmax"
  top: "_model_layers_31_self_attn_MatMul_1"
  base_type: "BatchDot"
  estimator_group: "BatchDot"
  batch_dot_param {
    transpose_a: 1
    transpose_b: 0
  }
}
layer {
  name: "_model_layers_31_self_attn_o_proj_MatMul_ara_reshape_0"
  type: "Ara2Reshape"
  bottom: "_model_layers_31_self_attn_MatMul_1"
  top: "_model_layers_31_self_attn_o_proj_MatMul_ara_reshape_0"
  base_type: "Reshape"
  estimator_group: "Reshape"
  reshape_param {
    shape {
      dim: 1
      dim: 4096
      dim: 1
      dim: 256
    }
  }
}
layer {
  name: "_model_layers_31_self_attn_o_proj_MatMul_ara_inrp"
  type: "Ara2Convolution"
  bottom: "_model_layers_31_self_attn_o_proj_MatMul_ara_reshape_0"
  top: "_model_layers_31_self_attn_o_proj_MatMul_ara_inrp"
  base_type: "Convolution"
  estimator_group: "Convolution"
  convolution_param {
    num_output: 4096
    bias_term: false
    kernel_size: 1
    kernel_size: 1
  }
}
layer {
  name: "_model_layers_31_Add"
  type: "Ara2Eltwise"
  bottom: "_model_layers_31_self_attn_o_proj_MatMul_ara_inrp"
  bottom: "_model_layers_31_residue_rshp_1"
  top: "_model_layers_31_Add"
  base_type: "Eltwise"
  estimator_group: "Eltwise"
  eltwise_param {
    operation: SUM
    broadcast0: 0.0
    broadcast0: 0.0
    broadcast0: 0.0
    broadcast1: 0.0
    broadcast1: 0.0
    broadcast1: 0.0
  }
}
layer {
  name: "_model_layers_31_rshp_5_Reshape"
  type: "Ara2Reshape"
  bottom: "_model_layers_31_Add"
  top: "_model_layers_31_rshp_5_Reshape"
  base_type: "Reshape"
  estimator_group: "Reshape"
  reshape_param {
    shape {
      dim: 1
      dim: 1
      dim: 4096
      dim: 256
    }
  }
}
layer {
  name: "_model_layers_31_prm_5_PermuteNnp"
  type: "Ara2PermuteNnp"
  bottom: "_model_layers_31_rshp_5_Reshape"
  top: "_model_layers_31_prm_5_PermuteNnp"
  base_type: "PermuteNnp"
  estimator_group: "PermuteNnp"
  permute_nnp_param {
    order: 0
    order: 1
    order: 3
    order: 2
  }
}
layer {
  name: "_model_layers_31_post_attention_layernorm_Mul_1_ara_LayerNorm_0"
  type: "Ara2LayerNorm"
  bottom: "_model_layers_31_prm_5_PermuteNnp"
  top: "_model_layers_31_post_attention_layernorm_Mul_1_ara_LayerNorm_0"
  base_type: "LayerNorm"
  estimator_group: "LayerNorm"
  layer_norm_param {
    axis: 3
    eps: 1e-06
    output_mean_var: false
    uses_mean: false
  }
}
layer {
  name: "_model_layers_31_prm_6_PermuteNnp"
  type: "Ara2PermuteNnp"
  bottom: "_model_layers_31_post_attention_layernorm_Mul_1_ara_LayerNorm_0"
  top: "_model_layers_31_prm_6_PermuteNnp"
  base_type: "PermuteNnp"
  estimator_group: "PermuteNnp"
  permute_nnp_param {
    order: 0
    order: 1
    order: 3
    order: 2
  }
}
layer {
  name: "_model_layers_31_rshp_6_Reshape"
  type: "Ara2Reshape"
  bottom: "_model_layers_31_prm_6_PermuteNnp"
  top: "_model_layers_31_rshp_6_Reshape"
  base_type: "Reshape"
  estimator_group: "Reshape"
  reshape_param {
    shape {
      dim: 1
      dim: 4096
      dim: 1
      dim: 256
    }
  }
}
layer {
  name: "_model_layers_31_mlp_up_proj_MatMul_ara_inrp"
  type: "Ara2Convolution"
  bottom: "_model_layers_31_rshp_6_Reshape"
  top: "_model_layers_31_mlp_up_proj_MatMul_ara_inrp"
  base_type: "Convolution"
  estimator_group: "Convolution"
  convolution_param {
    num_output: 11008
    bias_term: false
    kernel_size: 1
    kernel_size: 1
  }
}
layer {
  name: "_model_layers_31_mlp_gate_proj_MatMul_ara_inrp"
  type: "Ara2Convolution"
  bottom: "_model_layers_31_rshp_6_Reshape"
  top: "_model_layers_31_mlp_gate_proj_MatMul_ara_inrp"
  base_type: "Convolution"
  estimator_group: "Convolution"
  convolution_param {
    num_output: 11008
    bias_term: false
    kernel_size: 1
    kernel_size: 1
  }
}
layer {
  name: "_model_layers_31_mlp_act_fn_Mul"
  type: "Ara2Swish"
  bottom: "_model_layers_31_mlp_gate_proj_MatMul_ara_inrp"
  top: "_model_layers_31_mlp_act_fn_Mul"
  base_type: "Swish"
  estimator_group: "activation"
}
layer {
  name: "_model_layers_31_mlp_Mul"
  type: "Ara2Eltwise"
  bottom: "_model_layers_31_mlp_up_proj_MatMul_ara_inrp"
  bottom: "_model_layers_31_mlp_act_fn_Mul"
  top: "_model_layers_31_mlp_Mul"
  base_type: "Eltwise"
  estimator_group: "Eltwise"
  eltwise_param {
    operation: PROD
    broadcast0: 0.0
    broadcast0: 0.0
    broadcast0: 0.0
    broadcast1: 0.0
    broadcast1: 0.0
    broadcast1: 0.0
  }
}
layer {
  name: "_model_layers_31_mlp_down_proj_MatMul_ara_inrp"
  type: "Ara2Convolution"
  bottom: "_model_layers_31_mlp_Mul"
  top: "_model_layers_31_mlp_down_proj_MatMul_ara_inrp"
  base_type: "Convolution"
  estimator_group: "Convolution"
  convolution_param {
    num_output: 4096
    bias_term: false
    kernel_size: 1
    kernel_size: 1
  }
}
layer {
  name: "_model_layers_31_Add_1"
  type: "Ara2Eltwise"
  bottom: "_model_layers_31_Add"
  bottom: "_model_layers_31_mlp_down_proj_MatMul_ara_inrp"
  top: "_model_layers_31_Add_1"
  base_type: "Eltwise"
  estimator_group: "Eltwise"
  eltwise_param {
    operation: SUM
    broadcast0: 0.0
    broadcast0: 0.0
    broadcast0: 0.0
    broadcast1: 0.0
    broadcast1: 0.0
    broadcast1: 0.0
  }
  isOutput: true
}
layer {
  name: "_model_layers_31_residue_perm_3"
  type: "Ara2Reshape"
  bottom: "_model_layers_31_Add_1"
  top: "_model_layers_31_residue_perm_3"
  base_type: "Reshape"
  estimator_group: "Reshape"
  reshape_param {
    shape {
      dim: 1
      dim: 1
      dim: 4096
      dim: 256
    }
  }
}
layer {
  name: "_model_layers_31_residue_rshp_3"
  type: "Ara2PermuteNnp"
  bottom: "_model_layers_31_residue_perm_3"
  top: "_model_layers_31_residue_rshp_3"
  base_type: "PermuteNnp"
  estimator_group: "PermuteNnp"
  permute_nnp_param {
    order: 0
    order: 1
    order: 3
    order: 2
  }
}
layer {
  name: "_model_norm_Mul_1"
  type: "Ara2LayerNorm"
  bottom: "_model_layers_31_residue_rshp_3"
  top: "_model_norm_Mul_1"
  base_type: "LayerNorm"
  estimator_group: "LayerNorm"
  layer_norm_param {
    axis: 3
    eps: 1e-06
    output_mean_var: false
    uses_mean: false
  }
}
layer {
  name: "_model_layers_31_residue_perm_4"
  type: "Ara2PermuteNnp"
  bottom: "_model_norm_Mul_1"
  top: "_model_layers_31_residue_perm_4"
  base_type: "PermuteNnp"
  estimator_group: "PermuteNnp"
  permute_nnp_param {
    order: 0
    order: 1
    order: 3
    order: 2
  }
}
layer {
  name: "_model_layers_31_residue_rshp_4"
  type: "Ara2Reshape"
  bottom: "_model_layers_31_residue_perm_4"
  top: "_model_layers_31_residue_rshp_4"
  base_type: "Reshape"
  estimator_group: "Reshape"
  reshape_param {
    shape {
      dim: 1
      dim: 4096
      dim: 1
      dim: 256
    }
  }
}
layer {
  name: "_lm_head_MatMul_ara_inrp"
  type: "Ara2Convolution"
  bottom: "_model_layers_31_residue_rshp_4"
  top: "_lm_head_MatMul_ara_inrp"
  base_type: "Convolution"
  estimator_group: "Convolution"
  convolution_param {
    num_output: 151936
    bias_term: false
    kernel_size: 1
    kernel_size: 1
  }
}